checkpoint/ESPCN.pth (torch, 780823 bytes, 6 tensors)

first_part.0.weight f4 [256, 3, 5, 5]
-0.10225744 -0.055929188 -0.08362646 -0.023212776 0.11144841 -0.056441717 -0.068216555 0.028982405
0.36261687 -0.11405115 0.0076275347 0.12991352 0.41059032 -0.26716438 0.05061451 0.18840446
-0.1282074 -0.38560218 -0.11700365 -0.07892714 -0.1149073 -0.016543973 -0.039895177 0.058505226
0.08550431 0.06566938 -0.009413288 -0.060785744 -0.013914641 0.11865973 0.03098893 -0.119341314
-0.09225721 0.30976903 -0.22877353 -0.025270224 0.040676504 0.3562858 -0.3937415 -0.016172737
0.32931888 -0.12881929 -0.30184382 0.03105866 -0.0025347555 -0.02379944 0.024835557 0.050177798
0.1607989 0.037954405 0.012705768 -0.008358577 -0.07899624 0.026928946 0.098335855 -0.01913076
-0.049616996 -0.0074098897 0.40285945 -0.2239651 -0.075001664 0.07679248 0.46155947 -0.3275244
0.050628126 0.29469344 -0.118924595 -0.27570453 0.030300185 -0.005933357 -0.19469246 -0.11555934
0.060375564 0.06377876 -0.04872341 -0.035282914 -0.043208208 0.056934275 -0.0122597935 -0.010765951
-0.003604497 -0.029257441 0.004254562 -0.03823617 -0.015958318 0.016370852 -0.04805095 -0.06366172
-0.0018232517 -0.003474176 0.0006635373 0.013858892 0.0025407234 0.03018613 -0.006948928 -0.01833009
0.0082052685 0.04099524 0.11017254 0.030282173 -0.00014046233 -0.046512745 0.013997329 -0.035877503
0.03682482 0.033255633 0.036898643 -0.006766955 -0.054199595 0.063039325 0.025655553 -0.010790822
-0.02222277 0.0176533 -0.044009898 0.0033311618 0.00096164923 0.015126477 -0.01619478 -0.02812415
0.035482608 0.0032456664 0.00049639965 0.014782371 0.017146675 0.018891687 -0.025210174 0.04962204
-0.003770762 -0.02804851 -0.034815874 0.013442033 0.104528494 0.0059114164 -0.008372254 0.039748542
0.020483183 0.08051172 0.057774283 0.030047473 -0.013560427 -0.011791016 -0.031076264 -0.031334423
-0.029535994 -0.059936572 -0.046470694 -0.08082415 -0.018764809 -0.022177685 -0.022378491 -0.010881465
0.07406264 0.029223528 0.022666113 0.012714319 -0.013638501 0.060225084 -0.0022031714 -0.0032626512
-0.044754714 -0.018226996 -0.034910064 -0.004192655 -0.014669308 0.00545001 0.014588355 -0.0019931872
0.013746729 0.04594839 -0.00935338 0.0068080397 -0.043790955 -0.041621413 -0.014521368 0.030414
0.014672308 0.0048961793 0.00059429416 -0.033249896 -0.032199387 -0.02184406 -0.01696142 0.012476147
-0.034571297 0.008281591 0.07721018 0.06067829 -0.00040662897 0.0051462254 0.004548967 0.01654776
-0.010453596 0.011865139 0.009465539 0.014643009 -0.048046794 -0.015430235 0.0024731287 -0.03789147
0.00076230185 0.014844694 -0.07814954 -0.062400263 0.039488275 -0.007678111 -0.014528745 -0.022957172
0.04050653 0.025002802 0.027534792 -0.025906868 -0.019045793 -0.017095614 0.041852836 -0.041957714
-0.008581945 -0.03290595 -0.020864595 -0.079603314 0.05530702 0.026290644 0.053946737 0.026436174
0.05997016 -0.02652319 -0.00037192184 -0.05582932 -0.035203215 -0.0134202065 -0.092678085 -0.028432999
0.0038217905 -0.025349436 0.01101749 -0.009056723 -0.0016811502 0.07727258 0.038230438 0.03347688
-0.07225546 -0.03414614 0.024318708 -0.007954285 -0.014849951 -0.023248762 -0.03339755 0.048760872
-0.0055408245 -0.0037052392 0.042689566 0.07010557 -0.00565395 -0.031268176 0.0136415195 -0.009353841
00000000: 596c d1bd 0116 65bd 5944 abbd b828 bebc
00000010: 103f e43d 6e2f 67bd 1fb5 8bbd 826c ed3c
00000020: eba8 b93e a693 e9bd 66f0 f93b 0d08 053e
00000030: e538 d23e c5c9 88be 2951 4f3d 19ed 403e
00000040: cd48 03be a66d c5be 9c9f efbd 8da4 a1bd
00000050: 8554 ebbd 3a87 87bc 2069 23bd 2da3 6f3d
00000060: e21c af3d ab7d 863d 313a 1abc 79fa 78bd
00000070: 3cfa 63bc df03 f33d 7fdc fd3c 3869 f4bd
00000080: 59f1 bcbd 0c9a 9e3e 9c43 6abe 8003 cfbc
00000090: 689c 263d 186b b63e 7c98 c9be b07c 84bc
000000a0: 7c9c a83e 34e9 03be 468b 9abe bb6e fe3c
000000b0: 241e 26bb 0bf7 c2bc f073 cb3c 3c87 4d3d
000000c0: 78a8 243e 1476 1b3d db2b 503c 6af2 08bc
000000d0: c8c8 a1bd 189a dc3c 4f64 c93d 1db8 9cbc
000000e0: 313b 4bbd a9ce f2bb 9843 ce3e 1b57 65be
000000f0: 799a 99bd 6045 9d3d 8651 ec3e 47b1 a7be
00000100: 705f 4f3d 0fe2 963e bd8e f3bd 2529 8dbe
00000110: 1838 f83c 9b6c c2bb 765d 47be 60aa ecbd
00000120: 5e4c 773d 709e 823d 3392 47bd d184 10bd
00000130: 17fb 30bd ea33 693d 4ddd 48bc ac63 30bc
00000140: 6d39 6cbb 4dad efbc da69 8b3b 889d 1cbd
00000150: 05bb 82bc 2a1c 863c 13d1 44bd 1361 82bd
00000160: 2dfa eeba 00af 63bb 3cf1 2d3a 6810 633c
00000170: 4482 263b e748 f73c d5b3 e3bb fc28 96bc
00000180: 646f 063c a0ea 273d 24a2 e13d 5212 f83c
00000190: 1249 13b9 2684 3ebd 0e55 653c 4af4 12bd
000001a0: 9fd5 163d 0f37 083d 0823 173d 55bd ddbb
000001b0: 6500 5ebd c31a 813d 982b d23c fdcb 30bc
000001c0: 870c b6bc a79d 903c b943 34bd 9f4f 5a3b
000001d0: 3017 7c3a 0bd5 773c eaaa 84bc 9e64 e6bc
000001e0: 3656 113d 3fb5 543b d120 023a c231 723c
000001f0: 2f77 8c3c bdc2 9a3c 9185 cebc 7b40 4b3d
00000200: e31e 77bb fdc5 e5bc 179b 0ebd f93b 5c3c
00000210: 0913 d63d 8eb4 c13b c72b 09bc 5ecf 223d
00000220: 59cc a73c 54e3 a43d baa4 6c3d 1e26 f63c
00000230: 8e2c 5ebc 1b2f 41bc a693 febc 8658 00bd
00000240: 78f5 f1bc 0d80 75bd 0e58 3ebd 2287 a5bd
00000250: a8b8 99bc faad b5bc 1953 b7bc 2c48 32bc
00000260: 27ae 973d 2e66 ef3c 49ae b93c b84f 503c
00000270: 0574 5fbc 94ae 763d 1563 10bb 34d2 55bb
00000280: b850 37bd c850 95bc dbfd 0ebd 8a62 89bb
00000290: 8a57 70bc ff95 b23b ff03 6f3c 22a0 02bb
000002a0: f639 613c 6134 3c3d eb3e 19bc fa15 df3b
000002b0: 255e 33bd 377b 2abd 08eb 6dbc c826 f93c
000002c0: 1f64 703c 2170 a03b 68ca 1b3a 0b31 08bd
000002d0: 81e3 03bd 50f2 b2bc adf2 8abc c168 4c3c
000002e0: a29a 0dbd 83af 073c 5f20 9e3d cc89 783d
000002f0: d130 d5b9 aba1 a83b 800f 953b 2b8f 873c
00000300: 8f45 2bbc 0066 423c 5915 1b3c 3be9 6f3c
00000310: b7cc 44bd 19cf 7cbc 3714 223b 1634 1bbd
00000320: 36d5 473a 2937 733c de0c a0bd 6b97 7fbd
00000330: 75be 213d aa98 fbbb f909 6ebc ae10 bcbc
00000340: 2dea 253d add2 cc3c a590 e13c a43a d4bc
00000350: ec05 9cbc 1a0c 8cbc e16d 2b3d dadb 2bbd
00000360: 499b 0cbc 64c8 06bd 3aec aabc 1007 a3bd
00000370: 9d89 623d 7a5f d73c 41f7 5c3d ad90 d83c
00000380: 45a3 753d 2947 d9bc 81fe c2b9 49ad 64bd
00000390: 3f31 10bd 6de0 5bbc 02ce bdbd 52ec e8bc
000003a0: 0177 7a3b 9fa9 cfbc b482 343c a662 14bc
000003b0: 0a5a dcba 1641 9e3d 8597 1c3d 0e1f 093d
000003c0: acfa 93bd d3dc 0bbd 0738 c73c b052 02bc
000003d0: 354d 73bc 3074 bebc dfcb 08bd 7bb9 473d
000003e0: ce8f b5bb 99d3 72bb 41db 2e3d 8293 8f3d
000003f0: c544 b9bb 0f13 00bd ae80 5f3c da40 19bc

first_part.0.bias f4 [256]
0.027765093 -0.0011435865 7.3364616e-05 -0.16695477 0.0019956962 0.00034975127 0.00018489857 0.0008505227
-0.13504201 0.0008456564 0.014028328 0.00040105206 0.005224929 0.001393778 -0.006013769 -0.003355481
-0.00030645428 -0.59745634 0.00035474228 -0.0017511599 -0.0019022431 0.00026278797 0.0015680062 -0.0021330377
-0.0018178902 -0.0068017547 -0.0025575554 0.0018487542 0.0016922628 0.0023420698 0.00062297453 -0.020003665
-0.009767718 -0.006878278 -0.09814916 -0.0018814158 -0.061357517 0.0016271957 -0.0047685765 0.017430672
-0.005565813 0.00015417876 -0.0072107366 -0.032596502 0.0012832549 0.049942985 -0.001040234 -0.00024022962
-0.46406844 0.00077543897 0.0010364426 0.0036137842 -0.00020790828 -0.0005858615 0.0013649311 0.000348106
0.0051892614 0.04665661 0.017992452 0.0040342547 0.0007340473 0.0062732412 0.040268607 0.00033565206
-0.00046256423 -0.0004756684 -0.027546054 -8.7592074e-05 -0.0031212007 0.15268964 -0.069310576 0.0004906834
0.045065735 0.0038191562 0.0034522647 0.0012686863 0.02438391 0.162879 0.0038820736 0.0005544225
-0.0022673376 -0.00025921976 0.0011211177 0.44564545 -0.025042277 0.0006270865 -0.0004039201 -0.00010360036
-0.010867802 0.004610803 -0.0025914747 0.20750041 -0.0012158084 -0.004575716 0.090620115 0.0041510807
-0.0024427897 0.0007694057 0.0015982914 -0.003641303 0.0008170372 0.00019956843 -0.0051488085 -0.0036891731
-0.0010605112 0.0046453997 0.0004862009 -0.0014339791 -0.005583732 -0.00017336893 -0.00067453226 0.0004685722
0.02156058 -0.0013269574 0.00061538874 0.11403101 -0.0010159891 4.202176e-05 -0.03010496 -0.00351476
-0.0019091916 -0.00012766976 0.00086875074 0.0025406997 0.00032072444 0.009194254 -0.003344322 -0.003528885
0.0011625423 -0.05314228 -0.029905297 -0.006049078 0.00022733845 0.60320526 -0.0010016853 0.01366225
-0.018376367 -0.0006132814 -0.0217963 0.0010701029 0.0015989317 -0.0007533881 -0.0017850683 -0.0018575762
-0.002956063 -0.0041624173 -0.0010178963 0.0025834332 -0.002064041 0.0029243503 -0.15862456 0.0008661327
0.0010582319 -0.013814747 0.05260371 -0.00051543454 -0.0017861057 -0.0004192413 -0.0041963398 0.02562101
0.0003736115 -0.00293898 -0.03669239 0.00083610934 -0.09324046 -0.0015280357 0.021806695 0.0025324
0.015200794 -0.0061572143 0.0013630677 0.0013834608 -0.00038086 -0.012210616 -0.012611156 -0.037694555
-0.0011510341 -0.0017947799 -0.0023290867 0.003230963 0.5068052 0.017477212 0.016510386 0.0017985225
0.003794323 0.0022442264 -0.0014105951 0.0036781237 0.010384066 -0.0046480675 -0.0003048429 0.022446612
-0.00784597 0.00045026984 0.14117417 0.029806603 0.0029616822 0.05466334 -6.749928e-05 0.0044950303
-0.06923376 0.0018183321 -0.0016502577 0.0002914302 -0.016212618 0.0007526182 -0.00067075755 0.0011732522
-0.0012152988 -0.01079803 0.00089473446 0.008200897 -0.0015367317 -0.015744135 -0.0012030543 -0.0009876214
-0.00020195077 0.49540243 0.014761523 0.00021694545 -0.004798723 -0.100042365 -0.0021841044 0.032394342
-0.0024110072 0.0042720637 0.0040920083 0.0063666594 0.031382788 -0.003521516 0.0018819284 -0.0010751996
-0.0019743352 -0.0009015202 0.0013598861 0.0020838843 0.0030869325 -0.0030713887 0.000978461 0.0013297726
0.00048593423 -0.00078153436 0.0050501013 0.0040655322 0.009150649 -0.008285531 -0.00014064195 0.022678202
0.0040945755 -0.0026891492 0.0008340372 0.0006675159 0.0027866785 4.8473456e-05 -0.0059082485 -0.00015172
00000000: 9f73 e33c 65e4 95ba 54db 9938 31f6 2abe
00000010: 3aca 023b d25e b739 55e1 4139 9df5 5e3a
00000020: 7448 0abe 0aaf 5d3a 12d7 653c 4c44 d239
00000030: e235 ab3b 6eaf b63a 270f c5bb a1e7 5bbb
00000040: 99ab a0b9 e6f2 18bf b4fc b939 2d87 e5ba
00000050: b054 f9ba cec6 8939 8f85 cd3a 6fca 0bbb
00000060: 4646 eeba 41e1 debb a99c 27bb e651 f23a
00000070: ebce dd3a 697d 193b 1d4f 233a bade a3bc
00000080: c708 20bc 2e63 e1bb 6d02 c9bd d799 f6ba
00000090: 0552 7bbd a147 d53a b841 9cbb c5ca 8e3c
000000a0: 6c61 b6bb 0cab 2139 0b48 ecbb e983 05bd
000000b0: e432 a83a 0491 4c3d 7658 88ba 26e6 7bb9
000000c0: 619a edbe d446 4b3a 3ed9 873a 3dd5 6c3b
000000d0: f401 5ab9 8094 19ba 7de7 b23a ff81 b639
000000e0: ae0a aa3b 001b 3f3d e864 933c c831 843b
000000f0: 156d 403a c38f cd3b b2f0 243d 75fa af39
00000100: 5284 f2b9 2263 f9b9 43a8 e1bc a3b1 b7b8
00000110: 0f8d 4cbb ac5a 1c3e b4f2 8dbd 35a1 003a
00000120: d996 383d cf4a 7a3b 643f 623b 0c4a a63a
00000130: c4c0 c73c c1c9 263e 636a 7e3b aa56 113a
00000140: 9d97 14bb e3e7 87b9 78f2 923a a42b e43e
00000150: 7625 cdbc 1063 243a 3dc5 d3b9 0544 d9b8
00000160: de0e 32bc 3816 973b bbd5 29bb fd7a 543e
00000170: c35b 9fba e3ef 95bb 0a97 b93d ca05 883b
00000180: 3617 20bb f1b1 493a c37d d13a eda2 6ebb
00000190: 702e 563a 3e43 5139 56b7 a8bb 0ec6 71bb
000001a0: da00 8bba 7038 983b c8e8 fe39 5bf4 bbba
000001b0: bdf7 b6bb 5eca 35b9 18d3 30ba b2aa f539
000001c0: d09f b03c 4ded adba 0a52 213a 1789 e93d
000001d0: f02a 85ba 8540 3038 ad9e f6bc e357 66bb
000001e0: d73d faba 17df 05b9 e0bc 633a de81 263b
000001f0: e826 a839 7fa3 163c 6a2c 5bbb de44 67bb
00000200: 7260 983a b8ab 59bd f4fb f4bc 5837 c6bb
00000210: b361 6e39 a96b 1a3f fb4a 83ba a1d7 5f3c
00000220: 098a 96bc 9ec4 20ba 278e b2bc b242 8c3a
00000230: 3f93 d13a 057f 45ba f4f8 e9ba ea79 f3ba
00000240: 82ba 41bb e364 88bb ef6a 85ba d14e 293b
00000250: dd44 07bb 75a6 3f3b 7a6e 22be 2e0d 633a
00000260: 5fb4 8a3a 4057 62bc fd76 573d 3a1e 07ba
00000270: c31b eaba 9dcd dbb9 7381 89bb 27e3 d13c
00000280: 49e1 c339 e79b 40bb c24a 16bd 592e 5b3a
00000290: dbf4 bebd 5f48 c8ba f4a3 b23c 9ff6 253b
000002a0: c00c 793c 75c2 c9bb f6a8 b23a 3e55 b53a
000002b0: 2aae c7b9 090f 48bc 069f 4ebc 9b65 1abd
000002c0: 4cde 96ba d23e ebba 97a3 18bb 90be 533b
000002d0: fcbd 013f 5f2c 8f3c ca40 873c 67bc eb3a
000002e0: 2daa 783b df13 133b b8e3 b8ba ad0c 713b
000002f0: ee21 2a3c d14e 98bb 52d3 9fb9 f5e1 b73c
00000300: 628c 00bc 3212 ec39 f68f 103e fa2c f43c
00000310: c818 423b abe6 5f3d 668e 8db8 0c4b 933b
00000320: 6eca 8dbd 1a55 ee3a 764d d8ba 19cb 9839
00000330: 53d0 84bc 5a4b 453a c7d5 2fba d0c7 993a
00000340: a94a 9fba 38ea 30bc 9d8c 6a3a 0e5d 063c
00000350: 296c c9ba d8f9 80bc ceaf 9dba 1373 81ba
00000360: bfc2 53b9 63a5 fd3e 51da 713c da7b 6339
00000370: 9b3e 9dbb 03e3 ccbd 3123 0fbb eeaf 043d
00000380: fd01 1ebb abfc 8b3b 4116 863b 699f d03b
00000390: 3d8b 003d 3cc9 66bb 0aab f63a b6ed 8cba
000003a0: d963 01bb ff53 6cba 353e b23a c791 083b
000003b0: 224e 4a3b 5a49 49bb b43f 803a c44b ae3a
000003c0: fdc4 fe39 e2df 4cba 527b a53b 2838 853b
000003d0: 9bec 153c 09c0 07bc 4979 13b9 a3c7 b93c
000003e0: ca2b 863b 703c 30bb 4aa3 5a3a 3cfc 2e3a
000003f0: b5a0 363b fa4f 4b38 fb99 c1bb 0717 1fb9

first_part.2.weight f4 [64, 256, 3, 3]
-0.19577144 0.02703938 -0.020255025 -0.0801974 -0.045347154 0.096493706 -0.09122218 -0.12641566
-0.19983512 -0.23393983 0.013510936 -0.050188806 -0.10501108 0.028162932 0.18660349 -0.13981229
0.05778507 0.08036623 -0.116399676 0.05448792 -0.1639545 0.029742762 0.100352526 0.002521901
0.031565234 -0.025863929 0.1167863 -0.08917329 -0.06584467 -0.09377425 0.027129717 0.11151354
0.120959744 0.0591798 0.017170258 0.1373301 -0.09661801 0.07240345 0.014506874 0.006806119
-0.0825257 -0.04180397 0.008493749 -0.08890041 0.14540254 -0.03320536 0.06151573 0.063031025
0.020978801 0.0027451138 0.024540901 -0.0044174492 -0.008441832 -0.018144121 -0.13105656 0.035410423
-0.030869747 0.029999029 -0.08843658 -0.037520207 0.054887302 -0.082645155 0.062860936 0.02817081
0.07623483 -0.006893198 -0.15948717 -0.10915876 0.07311112 -0.06801953 -0.0033406506 0.20673925
-0.18536933 -0.13500768 -0.0584142 -0.12980182 -0.08046061 0.07410107 -0.006110546 -0.07031669
0.11425138 -0.011488505 -0.032108773 -0.08955011 0.23557934 0.18629724 -0.18594496 0.12235577
-0.025788015 0.01738625 0.027286934 -0.011635061 0.00984636 0.2135967 0.038158048 0.18265375
0.12718594 -0.06921601 0.095625274 0.060311373 0.13512737 0.008016456 0.11434106 -0.08131681
0.08528103 -0.008839638 -0.06656095 -0.1412886 0.09217046 0.006939657 -0.08731952 -0.023264298
-0.10684827 0.0134061035 -0.018204218 -0.015613574 0.19764876 -0.021406597 -0.012626949 0.02369739
-0.11858735 0.106602505 -0.041271433 0.008757341 0.09884638 0.0536369 0.035502873 -0.02560489
0.074893504 0.114172325 -0.010361278 0.09557656 -0.011556228 -0.19973212 0.07877417 -0.09346376
-0.017123798 -0.10052208 0.03027906 -0.025155576 -0.08873049 0.01666346 0.08736174 0.062658034
-0.07771857 0.026403178 0.09787029 0.07214219 -0.0599339 -0.24666506 0.076492876 -0.08108077
0.12790535 -0.06264159 -0.1903599 -0.048777383 -0.38351303 -0.32374775 -0.10562025 -0.10557487
0.106458955 0.07846543 0.064153425 -0.24204247 0.11078538 0.07028739 0.01462955 -0.11266209
0.09023476 0.06407931 -0.08739962 -0.061819237 -0.023429895 0.093054205 -0.09679742 -0.027836222
0.12071985 -0.12961325 0.056870915 0.016435537 0.05607042 -0.097690865 0.12197908 0.0625801
0.13595441 0.117155455 -0.1282459 -0.10846228 -0.0035616418 0.12915985 0.008434428 -0.0052714385
-0.048197005 0.010738013 0.068919994 -0.047683258 0.10363485 -0.05264396 0.04183641 -0.13758636
0.11126637 0.0048432564 0.03029262 -0.14491604 0.056044184 -0.039453927 0.051925216 -0.13085909
0.009683708 0.06034785 0.044765215 -0.024651954 0.101308495 -0.01179115 -0.012945469 0.024181338
-0.14110558 -0.033840735 -0.095445715 -0.04873565 0.10399114 0.015202018 -0.037112813 0.13527946
-0.010098533 0.003058225 0.015442863 -0.051806632 -0.15344158 -0.08280344 -0.015067255 -0.05410425
-0.0011619151 0.07156226 0.1439425 -0.1486157 -0.012543748 -0.008217642 -0.014421688 -0.031222392
0.021368982 0.09625524 -0.2099823 -0.10522407 -0.077527404 0.03873502 -0.13284269 0.08864153
0.03063214 0.013405412 0.093935736 -0.012260433 -0.111829065 -0.044399433 -0.026198344 -0.11060019
00000000: 4f78 48be b181 dd3c deed a5bc 893e a4bd
00000010: f0bd 39bd 7e9e c53d b2d2 babd 1b73 01be
00000020: 94a1 4cbe ec8d 6fbe f95c 5d3c c792 4dbd
00000030: 0d10 d7bd f3b5 e63c fc14 3f3e f42a 0fbe
00000040: 0ab0 6c3d 0d97 a43d f462 eebd ba2e 5f3d
00000050: b0e3 27be 18a7 f33c a085 cd3d 7a46 253b
00000060: 8c4a 013d 97e0 d3bc a82d ef3d 7ca0 b6bd
00000070: 92d9 86bd b70c c0bd 243f de3c 3661 e43d
00000080: beb9 f73d 8566 723d a4a8 8c3c 43a0 0c3e
00000090: aadf c5bd 4348 943d 3dae 6d3c dd05 df3b
000000a0: 3c03 a9bd a43a 2bbd 5e29 0b3c 6b11 b6bd
000000b0: 67e4 143e 5802 08bd ebf7 7b3d 6916 813d
000000c0: bcdb ab3c 5ee7 333b 000a c93c 40c0 90bb
000000d0: 9c4f 0abc fba2 94bc b133 06be 850a 113d
000000e0: 8de2 fcbc 86c0 f53c 3d1e b5bd caae 19bd
000000f0: 82d1 603d dd41 a9bd 3cbd 803d 78c6 e63c
00000100: 0221 9c3d 56e0 e1bb 9b50 23be a18e dfbd
00000110: 48bb 953d d34d 8bbd d1ee 5abb 74b3 533e
00000120: 75d1 3dbe 743f 0abe ba43 6fbd c5ea 04be
00000130: 88c8 a4bd 4dc2 973d fa3a c8bb 3202 90bd
00000140: a1fc e93d 483a 3cbc 7d84 03bd 0c66 b7bd
00000150: b63b 713e b4c4 3e3e 5b68 3ebe a995 fa3d
00000160: 6341 d3bc 9c6d 8e3c d988 df3c fca0 3ebc
00000170: a152 213c 18b9 5a3e 9d4b 1c3d 9609 3b3e
00000180: 083d 023e 20c1 8dbd 2fd7 c33d 0f09 773d
00000190: d45e 0a3e 7457 033c a52b ea3d 6d89 a6bd
000001a0: d2a7 ae3d 21d4 10bc 1b51 88bd f5ad 10be
000001b0: dec3 bc3d 1066 e33b 94d4 b2bd c594 bebc
000001c0: 44d3 dabd 46a5 5b3c 0321 95bc 13d0 7fbc
000001d0: 7064 4a3e e35c afbc 43e1 4ebc 0721 c23c
000001e0: eddd f2bd 6a52 da3d 3c0c 29bd f37a 0f3c
000001f0: f96f ca3d 5eb2 5b3d 766b 113d 59c1 d1bc
00000200: c461 993d 2ed3 e93d 5ac2 29bc a5bd c33d
00000210: 5556 3dbc 9486 4cbe 5a54 a13d ee69 bfbd
00000220: 3547 8cbc 85de cdbd cb0b f83c 1113 cebc
00000230: 55b8 b5bd cf81 883c b6ea b23d db52 803d
00000240: ea2a 9fbd 7a4b d83c 3870 c83d 49bf 933d
00000250: 407d 75bd c495 7cbe 4ca8 9c3d ad0d a6bd
00000260: 9ff9 023e 3c4a 80bd b5ed 42be cbca 47bd
00000270: d25b c4be 44c2 a5be 6e4f d8bd a337 d8bd
00000280: 2707 da3d 7cb2 a03d df62 833d fbd9 77be
00000290: 72e3 e23d d6f2 8f3d c8b0 6f3c 62bb e6bd
000002a0: 00cd b83d 033c 833d 92fe b2bd 2b36 7dbd
000002b0: 0df0 bfbc 3493 be3d ba3d c6bd ca08 e4bc
000002c0: f83b f73d 56b9 04be 7af1 683d d2a3 863c
000002d0: 19aa 653d 2612 c8bd 2bd0 f93d ff29 803d
000002e0: a237 0b3e 33ef ef3d e552 03be 7921 debd
000002f0: 6f6a 69bb 7b42 043e 8e30 0a3c 08bc acbb
00000300: 396a 45bd 7eee 2f3c ed25 8d3d 854f 43bd
00000310: 823e d43d 31a1 57bd a85c 2b3d 70e3 0cbe
00000320: 9fdf e33d 2eb4 9e3b 3b28 f83c df64 14be
00000330: 968e 653d 719a 21bd 89af 543d edff 05be
00000340: 6aa8 1e3c 4f2f 773d bb5b 373d e5f2 c9bc
00000350: d47a cf3d ab2f 41bc 3b19 54bc f117 c63c
00000360: fb7d 10be 959c 0abd 0b79 c3bd 089f 47bd
00000370: 4ff9 d43d e311 793c 9b03 18bd b386 0a3e
00000380: 5174 25bc 806c 483b 1004 7d3c 3133 54bd
00000390: ca1f 1dbe da94 a9bd a6dc 76bc 6b9c 5dbd
000003a0: 674b 98ba 3c8f 923d aa65 133e b72e 18be
000003b0: 4b84 4dbc 4aa3 06bc f248 6cbc 1ac6 ffbc
000003c0: 010e af3c 7821 c53d 9a05 57be b87f d7bd
000003d0: b0c6 9ebd 9da8 1e3d ea07 08be b189 b53d
000003e0: 41f0 fa3c 60a2 5b3c 6161 c03d fcdf 48bc
000003f0: a306 e5bd 2edc 35bd e99d d6bc 5a82 e2bd

first_part.2.bias f4 [64]
0.1689356 0.14769152 0.23105793 -0.11610453 0.2939749 0.065525025 -0.26373154 0.03514662
0.1522685 -0.220321 -0.010759364 0.24724355 0.078858465 0.28963894 -0.25252825 0.024433676
0.1909366 -0.07709087 0.02204401 -0.28564072 0.347312 -0.066461876 -0.06620907 0.14806627
0.2860511 0.34445745 0.24291709 0.28276694 0.05151115 -0.039831206 -0.011531212 -0.2456304
0.081813164 0.07777055 -0.25892022 -0.10462127 -0.0790127 0.18541034 -0.14745525 0.01933405
0.019550793 0.17075622 -0.30257162 0.027911985 0.19836912 -0.14770177 -0.18919982 -0.12213343
0.16039266 -0.06739423 0.06727295 -0.1404782 -0.017189369 0.03080183 -0.26639298 -0.090636864
-0.11097933 -0.17481977 0.11211394 0.12146912 -0.049720995 0.030307248 0.384509 0.28282693
00000000: 74fd 2c3e 723c 173e 739a 6c3e 36c8 edbd
00000010: e183 963e fc31 863d d207 87be e7f5 0f3d
00000020: 46ec 1b3e d49b 61be 0b48 30bc 6a2d 7d3e
00000030: 8c80 a13d 8e4b 943e 624b 81be 2229 c83c
00000040: e284 433e d1e1 9dbd a495 b43c 803f 92be
00000050: e1d2 b13e 2a1d 88bd 9f98 87bd af9e 173e
00000060: 4a75 923e ba5c b03e 42bf 783e d4c6 903e
00000070: 5bfd 523d 0c26 23bd 69ed 3cbc 8986 7bbe
00000080: a98d a73d 2b46 9f3d 3191 84be ad43 d6bd
00000090: 69d1 a1bd 35dc 3d3e 82fe 16be 7162 9e3c
000000a0: fc28 a03c b8da 2e3e abea 9abe ada7 e43c
000000b0: 4621 4b3e 223f 17be 99bd 41be 1721 fabd
000000c0: f93d 243e fc05 8abd 67c6 893d 84d9 0fbe
000000d0: b8d0 8cbc 1f54 fc3c a964 88be d29f b9bd
000000e0: 2249 e3bd f403 33be fe9b e53d cdc4 f83d
000000f0: 3ea8 4bbd e846 f83c 5dde c43e b1ce 903e

last_part.0.weight f4 [48, 64, 3, 3]
-0.028747356 -0.17062475 -0.052559182 0.07547479 0.0046512745 0.023702998 -0.06609917 -0.035770036
0.035830952 -0.012357761 0.17487894 -0.037174813 -0.068661034 0.07050747 0.010135758 -0.035137095
-0.030527227 -0.021566126 -0.09286288 0.019330338 -0.03464231 0.10959415 0.047993466 0.041986063
-0.040444896 0.08412333 -0.076252766 0.02365262 0.03539229 -0.06293835 0.09031515 0.012722583
0.022471033 -0.013717715 -0.038757093 0.05065317 -0.00039604175 0.12029636 0.03952982 -0.10820163
0.07953047 -0.077413425 0.0809689 0.05303704 0.06996274 0.059037138 -0.08967207 0.019987518
-0.003411609 -0.08680811 -0.018813828 0.037271336 -0.02948491 0.03129966 0.03966359 -0.10039625
0.08859453 0.0021377173 -0.079305515 0.05735834 0.02063446 0.07122659 -0.05478293 -0.054049555
0.043626416 0.0072056875 0.09927559 -0.08112753 -0.0011309152 0.03569557 -0.025947439 -0.0159323
-0.02408321 0.091131635 -0.021036709 -0.041658103 -0.015428564 0.029819189 -0.041901167 -0.028107462
-0.06860737 -0.0412887 0.010458134 0.02251315 -0.011024582 -0.028140428 -0.046411064 0.07880364
0.120865226 0.06416294 0.02370525 0.044772543 -0.06575212 0.07844576 -0.046325617 0.0058611683
0.055971008 0.017073967 0.030131172 0.04892326 0.11596733 0.018817835 0.04652982 0.065754116
-0.06385291 -0.098721586 0.07505516 -0.01562793 -0.05802661 -0.026129605 -0.038223594 -0.044298217
0.01816811 -0.042918414 -0.14917117 0.08022796 -0.0024239416 -0.03504229 0.032189924 0.04811606
-0.022316642 0.041345056 0.014198312 0.0019175609 0.032965053 -0.08591564 -0.052302692 -0.06981105
-0.0057545356 0.04547132 0.007471367 -0.0912236 -0.005222325 0.039864607 -0.0757074 0.060465552
-0.023171388 -0.0066130236 -0.12779535 0.0032780182 -0.02708524 0.0432021 0.022314824 0.032286704
-0.03873569 0.076063015 -0.03103855 0.042858038 0.07629751 0.024576519 0.021691931 0.120959915
0.09804111 0.01975767 0.053536657 -0.00322248 0.009811868 -0.0059512355 -0.0002932784 -0.041357417
0.010672458 -0.017276783 0.0043565608 0.03537163 -0.061222147 0.1241168 -0.12958585 0.036630094
-0.003697073 -0.103399895 0.091246344 0.057273187 -0.03716081 0.015821273 -0.07639313 -0.09470343
0.03130765 -0.04022769 -0.02848893 -0.034369573 0.032465324 -0.02319224 -0.029026102 0.035784278
0.0014288515 0.18033181 -0.028118696 0.08471321 -0.010945384 0.05385573 0.047646932 -0.021913413
-0.04207343 -0.09817606 0.031039359 -0.0065695024 -0.04063714 -0.0031484733 -0.025633788 -0.013624245
-0.008493257 0.08542429 -0.037402693 0.02863936 0.034997437 -0.06122586 -0.10933069 -0.021952461
-0.06090846 0.008436816 -0.054976154 0.08825452 0.05740819 -0.07933129 0.0671433 0.017510742
-0.050003298 -0.046110615 -0.056730714 -0.010119973 0.009293091 -0.025343826 0.056833297 -0.10337061
-0.026978096 -0.061264005 -0.055723757 -0.07983436 0.018782986 0.1617019 0.12819558 -0.034241073
-0.018455409 0.0066009886 0.045191545 -0.08998082 0.05949094 0.001506429 0.047546133 -0.01951801
-0.06403652 -0.098405905 -0.05976592 -0.010596323 0.065879494 -0.018312566 0.017511325 0.017872391
-0.17646885 -0.055482574 0.04731593 0.058634225 -0.0337064 0.081294 -0.031044409 -0.07035651
00000000: 937f ebbc 41b8 2ebe 4c48 57bd 8792 9a3d
00000010: b869 983b ca2c c23c 005f 87bd 9a83 12bd
00000020: 7ac3 123d 3578 4abc 7713 333e 9e44 18bd
00000030: 289e 8cbd 3866 903d 7310 263c eaeb 0fbd
00000040: 3c14 fabc 72ab b0bc e52e bebd a85a 9e3c
00000050: 18e5 0dbd e672 e03d cc94 443d 94f9 2b3d
00000060: 8ca9 25bd da48 ac3d 692a 9cbd 24c3 c13c
00000070: 82f7 103d d2e5 80bd 26f7 b83d 6172 503c
00000080: 2c15 b83c 44c0 60bc c2bf 1ebd b379 4f3d
00000090: d3a3 cfb9 f05d f63d 05ea 213d d198 ddbd
000000a0: dfe0 a23d ee8a 9ebd 06d3 a53d 5e3d 593d
000000b0: a048 8f3d edd0 713d fea5 b7bd ddbc a33c
000000c0: 4d95 5fbb 73c8 b1bd 751f 9abc d4a9 183d
000000d0: 578a f1bc 1334 003d 4a76 223d 8d9c cdbd
000000e0: 0d71 b53d f218 0c3b ee6a a2bd 94f0 6a3d
000000f0: 9909 a93c 3fdf 913d 1164 60bd 1163 5dbd
00000100: 9db1 323d b01d ec3b 0051 cb3d 3126 a6bd
00000110: 383b 94ba 8535 123d b98f d4bc 7484 82bc
00000120: 274a c5bc 39a3 ba3d 2d55 acbc b0a1 2abd
00000130: 16c8 7cbc 5f47 f43c 8fa0 2bbd 9f41 e6bc
00000140: 0582 8cbd 571e 29bd 9858 2b3c 7f6d b83c
00000150: 73a0 34bc c186 e6bc 8719 3ebd ce63 a13d
00000160: 3088 f73d dc67 833d 8331 c23c 6a63 373d
00000170: 0ca9 86bd 2ca8 a03d eebf 3dbd 0b0f c03b
00000180: db41 653d b4de 8b3c a6d5 f63c c263 483d
00000190: 4880 ed3d dc27 9a3c 0d96 3e3d 18aa 863d
000001a0: 51c5 82bd 8b2e cabd 85b6 993d 2506 80bc
000001b0: 50ad 6dbd c10d d6bc 5890 1cbd 0c72 35bd
000001c0: 4ad5 943c 38cb 2fbd 54c0 18be 8f4e a43d
000001d0: feda 1ebb 8188 0fbd 95d9 033d 5915 453d
000001e0: 64d1 b6bc 6f59 293d 09a0 683c ab56 fb3a
000001f0: 5d06 073d 8af4 afbd 593b 56bd 19f9 8ebd
00000200: 8b90 bcbb 2340 3a3d 5ed2 f43b 70d3 babd
00000210: 0a20 abbb 1249 233d 7b0c 9bbd baaa 773d
00000220: ecd1 bdbc 10b2 d8bb c9dc 02be 05d4 563b
00000230: dee1 ddbc aff4 303d 94cd b63c 103f 043d
00000240: 51a9 1ebd edc6 9b3d 8f44 febc e98b 2f3d
00000250: de41 9c3d b254 c93c 47b3 b13c d5b9 f73d
00000260: c7c9 c83d d6da a13c 4149 5b3d 3e30 53bb
00000270: f5c1 203c 9502 c3bb 29c3 99b9 6566 29bd
00000280: 89db 2e3c 0a88 8dbc 7bc1 8e3b d8e1 103d
00000290: 13c4 7abd f330 fe3d 27b2 04be 7009 163d
000002a0: 984a 72bb 53c3 d3bd 5ddf ba3d 4a97 6a3d
000002b0: ef35 18bd 9d9b 813c 0074 9cbd dff3 c1bd
000002c0: 733c 003d cac5 24bd 9e61 e9bc 1cc7 0cbd
000002d0: 5cfa 043d a7fd bdbc 26c8 edbc 8992 123d
000002e0: 4d48 bb3a e7a8 383e 2e59 e6bc 1f7e ad3d
000002f0: 4554 33bc d397 5c3d 6e29 433d c283 b3bc
00000300: 3055 2cbd 8810 c9bd 4146 fe3c fb44 d7bb
00000310: 2173 26bd 9e56 4ebb f3fd d1bc 3a38 5fbc
00000320: 4d27 0bbc eef2 ae3d 9133 19bd 179d ea3c
00000330: 7959 0f3d f8c7 7abd c5e8 dfbd a6d5 b3bc
00000340: 267b 79bd 923a 0a3c ad2e 61bd c9be b43d
00000350: da24 6b3d 7278 a2bd 6d82 893d b072 8f3c
00000360: 42d0 4cbd 7cde 3cbd 775e 68bd 3ece 25bc
00000370: 0c42 183c db9d cfbc 08ca 683d f8b3 d3bd
00000380: 2b01 ddbc f7ef 7abd 983e 64bd 3280 a3bd
00000390: c7de 993c 2f95 253e b445 033e 5e40 0cbd
000003a0: cc2f 97bc 1b4d d83b c51a 393d dd47 b8bd
000003b0: c6ac 733d 5f73 c53a bcbf 423d 3ce4 9fbc
000003c0: 9425 83bd 0989 c9bd 1ccd 74bd 339c 2dbc
000003d0: d4eb 863d 3c04 96bc e973 8f3c 1f69 923c
000003e0: 40b4 34be b241 63bd 59ce 413d 712a 703d
000003f0: b90f 0abd 787d a63d d850 febc 1317 90bd

last_part.0.bias f4 [48]
0.032439265 0.06813045 0.051141527 0.019979184 0.04185151 0.05655634 0.039083943 0.04097831
0.048926324 0.012885247 0.024913898 0.031191332 0.02879324 0.033764075 0.034485206 0.04540285
0.0369574 0.039261065 0.051720425 0.06327473 0.049006004 0.04106191 0.023920441 0.045379937
0.03775213 0.049701445 0.06576928 0.022536265 0.023572281 0.036168583 0.04322932 0.02000983
0.028319683 0.033932958 0.04524745 0.020731097 0.06069617 0.031070223 0.029586885 0.039356075
0.06395689 0.031608734 0.01892856 0.012966026 0.031062957 0.019582612 0.044835962 0.019269088
00000000: 09df 043d fa87 8b3d c779 513d 63ab a33c
00000010: 7d6c 2b3d 9fa7 673d 7c16 203d dfd8 273d
00000020: f866 483d a51c 533c 3b18 cc3c f784 ff3c
00000030: cddf eb3c 334c 0a3d 5c40 0d3d 57f8 393d
00000040: a560 173d 36d0 203d ccd8 533d 2f96 813d
00000050: 85ba 483d 8930 283d cdf4 c33c 50e0 393d
00000060: faa1 1a3d be93 4b3d 0bb2 863d f99d b83c
00000070: a81a c13c 8225 143d 3a11 313d a8eb a33c
00000080: aefe e73c 49fd 0a3d 6455 393d 43d4 a93c
00000090: 8c9c 783d fb86 fe3c 3260 f23c d633 213d
000000a0: d4fb 823d 2978 013d 1110 9b3c 746f 543c
000000b0: be77 fe3c b76b a03c eaa5 373d 35da 9d3c
