checkpoint/FSRCNN.pth (torch, 353248 bytes, 23 tensors)

first_part.0.weight f4 [128, 3, 5, 5]
-0.103614144 -0.014820619 -0.06707862 -0.116428554 0.046586607 0.17033556 0.006862885 0.09972828
0.12343606 0.26831356 -0.055516668 -0.07691443 -0.33982465 -0.008298314 -0.13431613 -0.102272615
0.04035025 -0.35472158 0.04253313 0.05425607 -0.14931333 -0.119373776 -0.18443906 -0.07528322
0.03389319 0.015555423 -0.02104712 0.08283989 -0.1463906 0.03034216 0.15177184 -0.083495066
0.1566801 -0.05315262 0.12885268 -0.010973133 -0.04805017 -0.09533996 0.038802054 -0.204723
0.010786397 0.091191456 -0.049883224 0.08247918 0.0015768256 -0.060876384 0.032301668 -0.00986879
-0.029983742 -0.011780436 -0.013003675 -0.14166528 0.1948024 -0.042586997 0.049941946 0.06597956
-0.26466364 0.10634338 -0.04689964 0.15773852 -0.07433249 -0.17177965 0.11003683 0.020373307
-0.18961397 0.008956447 -0.0012239912 0.09669403 0.07852502 -0.045354698 0.11316721 -0.029900754
0.122535385 0.06010546 0.018441191 0.036962245 0.027006296 0.020913668 0.017625699 -0.0039447234
-0.028045818 0.05613794 0.1106601 0.061154086 0.04505595 0.032708213 0.058620155 0.13447925
0.06143996 0.03596792 0.028547397 0.06395225 0.15074256 0.021809457 -0.022886058 0.016059099
0.0062982994 0.01585618 0.04060145 -0.012690451 0.021886095 -0.02160691 -0.012314831 0.020074883
-0.016325396 -0.0055568563 0.08258159 0.038409933 0.016794184 -0.026126549 -0.0059429538 0.015656961
0.07162381 0.025323866 0.0040061246 0.04324572 -0.031518936 0.023885293 -0.047571924 0.018027177
0.031513512 0.018748308 -0.002316304 0.036827553 0.0053728446 0.017752914 0.0012322683 -0.01976226
-0.017606162 -0.03799482 -0.01984723 -0.0390603 0.04674317 -0.020794613 0.004643541 -0.055875693
0.008715852 0.08452398 0.05794614 -0.00794604 -0.024342624 -0.03102976 0.051234253 -0.013623115
-0.0065313163 0.013164357 0.045599937 0.028306082 0.0049657254 -0.010684789 0.028345102 0.04273401
0.0014729913 0.00043335435 0.005513817 -0.015960846 0.008881727 -0.02958206 -0.008157863 -0.017768152
-0.011100899 0.008422003 -0.32480282 -0.07788846 -0.009195147 0.0010596677 -0.061477154 -0.16741447
-0.08126861 -0.0070699616 -0.003094908 -0.0063661747 -0.09910014 -0.017157374 0.034933154 0.0078566875
-0.031722806 0.026896343 0.041987784 0.061727986 0.024050651 0.028443508 0.0040830686 0.05578465
-0.031317927 0.069072746 0.050591934 -0.2755688 -0.02270816 0.0072367517 0.013732761 -0.0185938
-0.20858492 -0.0553006 0.04312407 -0.011085894 -0.038028557 -0.019177549 0.018781535 -0.034521222
-0.089585744 -0.08030329 -0.0007131566 -0.048093747 -0.017086351 0.02162052 -0.05281103 0.040460974
0.037330225 -0.027711194 0.079625554 -0.007368719 -0.09599683 0.052058987 0.08236385 0.0048669367
0.005500529 -0.14588119 0.021579232 0.0090835085 -0.023496123 0.022979373 0.07911045 0.057573445
-0.034201898 -0.12994218 0.015388736 -0.09649724 -0.08801346 -0.04313655 0.08531955 0.06365366
0.20261985 -0.12534752 0.08217712 -0.011937747 -0.0072955955 0.24818558 -0.03403925 0.055265088
0.053692523 -0.06776371 0.06054735 -0.0825859 -0.04477126 -0.06468937 -0.026589006 0.0362229
-0.016602235 -0.11323828 -0.026668796 -0.041666403 -0.26742715 -0.29520872 -0.12910903 0.06528318
00000000: a733 d4bd 2ed2 72bc 8460 89bd 1872 eebd
00000010: 99d1 3e3d 726c 2e3e 0de2 e03b 573e cc3d
00000020: 0ccc fc3d 6560 893e 7265 63bd 5085 9dbd
00000030: 7ffd adbe a7f5 07bc 2b8a 09be 4e74 d1bd
00000040: 4e46 253d 119e b5be 3837 2e3d 9d3b 5e3d
00000050: 98e5 18be 3d7a f4bd 98dd 3cbe 172e 9abd
00000060: 96d3 0a3d 2cdc 7e3c 036b acbc f6a7 a93d
00000070: 6be7 15be 1f90 f83c 146a 1b3e 76ff aabd
00000080: c070 203e 90b6 59bd f5f1 033e a8c8 33bc
00000090: 41d0 44bd 9941 c3bd e7ee 1e3d e8a2 51be
000000a0: 6eb9 303c 96c2 ba3d 5a52 4cbd d8ea a83d
000000b0: 7dad ce3a 8459 79bd c14e 043d b5b0 21bc
000000c0: 77a0 f5bc bb02 41bc 5e0d 55bc b410 11be
000000d0: 487a 473e b46f 2ebd ed8f 4c3d 4b20 873d
000000e0: fe81 87be 8fca d93d d619 40bd 3586 213e
000000f0: a23b 98bd 01e7 2fbe fd5a e13d ece5 a63c
00000100: 2a2a 42be 10be 123c 546e a0ba 8507 c63d
00000110: bad1 a03d d9c5 39bd 36c4 e73d 6df2 f4bc
00000120: d5f3 fa3d 2531 763d fb11 973c b965 173d
00000130: 4f3c dd3c 2453 ab3c c563 903c bd42 81bb
00000140: 58c0 e5bc e6f0 653d c3a1 e23d b57c 7a3d
00000150: 968c 383d 0cf9 053d b01b 703d eeb4 093e
00000160: 78a8 7b3d 1953 133d 3bdc e93c 66f9 823d
00000170: 425c 1a3e bfa9 b23c 8b7b bbbc 5f8e 833c
00000180: f761 ce3b d2e4 813c b54d 263d 9ceb 4fbc
00000190: 784a b33c f900 b1bc 25c4 49bc 1574 a43c
000001a0: d6bc 85bc 4a16 b6bb 8920 a93d bc53 1d3d
000001b0: f593 893c 5807 d6bc 1cbd c2bb 0743 803c
000001c0: 81af 923d ff73 cf3c cf45 833b 6d22 313d
000001d0: 001a 01bd 17ab c33c c7da 42bd bbad 933c
000001e0: 5014 013d 0d96 993c 22cd 17bb 7dd8 163d
000001f0: b00e b03b 8f6e 913c 1084 a13a 77e4 a1bc
00000200: cc3a 90bc 75a0 1bbd a896 a2bc b1fd 1fbd
00000210: c475 3f3d 7759 aabc d828 983b e9dd 64bd
00000220: efcc 0e3c e91a ad3d ef58 6d3d 1b30 02bc
00000230: 2f6a c7bc 2032 febc 02db 513d 7c33 5fbc
00000240: a704 d6bb 51af 573c 00c7 3a3d 28e2 e73c
00000250: 86b7 a23b 410f 2fbc fd33 e83c db09 2f3d
00000260: 6311 c13a d633 e339 40ad b43b 52c0 82bc
00000270: aa84 113c 1456 f2bc 8fa8 05bc 848e 91bc
00000280: 8ce0 35bc 71fc 093c 8e4c a6be fc83 9fbd
00000290: 3ea7 16bc 8ce4 8a3a 78cf 7bbd b36e 2bbe
000002a0: 2870 a6bd 23ab e7bb f1d3 4abb 589b d0bb
000002b0: 04f5 cabd 9f8d 8cbc 1116 0f3d 56b9 003c
000002c0: c6ef 01bd b855 dc3c 62fb 2b3d 7cd6 7c3d
000002d0: df05 c53c 5c02 e93c 43cb 853b 727e 643d
000002e0: 3a47 00bd 0376 8d3d 7d39 4f3d 5b17 8dbe
000002f0: 7706 babc 4622 ed3b 60ff 603c 0652 98bc
00000300: 4997 55be e282 62bd dda2 303d 9ca1 35bc
00000310: d5c3 1bbd 3c1a 9dbc bcdb 993c 2066 0dbd
00000320: bb78 b7bd 0d76 a4bd 21f3 3aba f3fd 44bd
00000330: adf8 8bbc 841d b13c 6150 58bd 68ba 253d
00000340: 94e7 183d 9602 e3bc b912 a33d 4c75 f1bb
00000350: fc99 c4bd ce3b 553d 61ae a83d d37a 9f3b
00000360: c83d b43b e161 15be eec6 b03c ffd2 143c
00000370: f17a c0bc 3d3f bc3c a904 a23d 22d2 6b3d
00000380: 4a17 0cbd 900f 05be 0921 7c3c 58a0 c5bd
00000390: 6740 b4bd f3af 30bd 04bc ae3d da5c 823d
000003a0: 947b 4f3e 1a5b 00be 7a4c a83d 8a96 43bc
000003b0: e40f efbb 5c24 7e3e be6c 0bbd a55d 623d
000003c0: b1ec 5b3d b3c7 8abd 8000 783d cc22 a9bd
000003d0: 1262 37bd dc7b 84bd 30d1 d9bc 775e 143d
000003e0: 6901 88bc 79e9 e7bd 8578 dabc 64aa 2abd
000003f0: 36ec 88be 9925 97be 2835 04be 30b3 853d

first_part.0.bias f4 [128]
-0.046331204 -0.06888283 0.049278792 -0.06762279 -0.10921713 -0.00076455274 -0.0097927805 0.0069306684
0.02802219 -0.08361978 -0.0027558443 -0.04305444 -0.005542272 -0.01747416 0.10088294 -0.0262948
0.10807426 -0.030295534 0.099168085 -0.07288944 -0.009758894 -0.0262252 -0.029353553 -0.08630117
0.1254405 -0.0799013 -0.038510416 0.042926144 0.091654286 -0.034976467 -0.00032567562 -0.072381444
0.059355345 -0.14605503 0.027563967 -0.032396212 0.011175329 -0.11884441 0.017032936 -0.015646368
0.017922854 0.0043152804 -0.02183317 -0.044116165 -0.0013038769 -0.012150065 -0.02529805 0.072906606
-0.0081448415 -0.007978633 0.08984507 -0.0020019328 -0.026211824 -0.07707768 -0.10090418 0.0053979135
-0.013062349 -0.0039138156 0.045700815 -0.117418386 -0.006188484 0.118603185 -0.009793087 0.016257767
-0.05581236 -0.04782601 0.05718485 -0.0046512326 -0.106745705 0.13369475 -0.03689711 0.07976545
-0.0024871754 0.019377278 0.10311476 -0.0035544282 -0.0709538 -0.16758691 -0.0022089656 0.0030380245
0.032731615 -0.016228665 -0.000418571 -0.1509136 0.13446207 -0.15929638 0.100670375 -0.05585256
0.08257247 -0.05295599 -0.0069988924 0.09448604 0.00810566 0.032527924 0.050794415 -0.03579451
-0.028893571 -0.72454673 -0.048444133 0.053869642 0.029921055 -0.04871069 -0.11051188 0.0025243445
-0.044286776 -0.012861215 -0.048083063 -0.089531876 0.001041596 -0.007553544 -0.088520445 -0.04223578
-0.05498134 -0.070585735 -0.061980583 -0.039143775 -0.14421621 -0.0025371455 -0.08647188 -0.020403786
-0.065060996 -0.07164241 0.04409129 0.09798347 -0.071228616 -0.010745721 -0.0016716861 -0.0072896588
00000000: cac5 3dbd 7112 8dbd 8fd8 493d d17d 8abd
00000010: 3bad dfbd 446c 48ba e671 20bc a91a e33b
00000020: cb8e e53c d940 abbd 659b 34bb da59 30bd
00000030: f29b b5bb f825 8fbc b79b ce3d 3168 d7bc
00000040: 0a56 dd3d 572e f8bc a318 cb3d 0f47 95bd
00000050: c5e3 1fbc 3bd6 d6bc dd76 f0bc abbe b0bd
00000060: 7973 003e 4ba3 a3bd 19bd 1dbd 53d3 2f3d
00000070: 3eb5 bb3d 7c43 0fbd 71bf aab9 b93c 94bd
00000080: 971e 733d 738f 15be d4cd e13c e4b1 04bd
00000090: ba18 373c b364 f3bd a888 8b3c d02c 80bc
000000a0: f3d2 923c 3267 8d3b 7adb b2bc 27b3 34bd
000000b0: d9e6 aaba 1111 47bc db3d cfbc 0f50 953d
000000c0: f171 05bc d0b8 02bc b100 b83d dc32 03bb
000000d0: 2eba d6bc e7da 9dbd daa6 cebd fbe0 b03b
000000e0: 7603 56bc 773f 80bb c730 3b3d 0d79 f0bd
000000f0: c4c8 cabb 3ae6 f23d 2f73 20bc 022f 853c
00000100: 809b 64bd 35e5 43bd a93a 6a3d 5e69 98bb
00000110: 7e9d dabd 47e7 083e 6d21 17bd 115c a33d
00000120: e1ff 22bb 19bd 9e3c d52d d33d 69f1 68bb
00000130: 3a50 91bd e79b 2bbe 4bc4 10bb 9819 473b
00000140: 9611 063d faf1 84bc a673 dbb9 1889 1abe
00000150: 6db0 093e 971e 23be 452c ce3d a7c5 64bd
00000160: c11b a93d 61e8 58bd f756 e5bb e681 c13d
00000170: 9acd 043c 003c 053d ce0d 503d 449d 12bd
00000180: 36b2 ecbc e57b 39bf 5b6d 46bd 6aa6 5c3d
00000190: 001d f53c dc84 47bd 0d54 e2bd 796f 253b
000001a0: 0d66 35bd d8b7 52bc bff2 44bd 7d5c b7bd
000001b0: 2a86 883a b883 f7bb 354a b5bd 6dff 2cbd
000001c0: 1d34 61bd 418f 90bd 5adf 7dbd 3955 20bd
000001d0: 6aad 13be 3d46 26bb 2b18 b1bd d725 a7bc
000001e0: b33e 85bd 41b9 92bd 1299 343d 8fab c83d
000001f0: 4fe0 91bd d20e 30bc 7a1c dbba 17de eebb

first_part.1.weight f4 [128]
-0.013712389 0.754043 0.08282053 -0.23882191 0.80368614 1.7074916 -0.3854186 -0.6477782
-0.1638587 0.54833126 -0.82103515 -0.23668292 0.9619786 0.3261793 0.09884915 -0.123685434
0.2575607 -0.12121535 0.15150194 0.9282732 -0.62648636 -0.5777011 -0.34424394 1.2990794
-0.03674985 0.8995347 0.8733501 -0.81373477 -0.17909276 -0.18658437 -0.51593786 1.5939605
0.10479785 -0.05768204 2.439906 -0.39609036 1.1021705 1.2715681 -0.014351552 0.81727976
0.13275348 0.85311073 0.4649037 1.7679883 0.17336708 -0.118418016 0.037564237 -0.34990075
0.8648827 0.22099537 -0.056067638 -0.40594724 1.8014832 1.7870991 1.1919734 1.2312855
-0.35339916 -0.45229217 0.059458166 0.97844756 0.3850326 -0.43552983 1.3017051 -0.18066418
-0.18492095 1.6785257 0.17801905 -0.53547704 0.7429579 0.03341523 -0.51987004 -0.7371877
0.22251351 -0.5139415 -0.52017134 -0.75518084 -0.22329187 -0.09942283 -0.0277935 -0.75937206
-0.00015989234 0.6383286 0.05199516 -0.03493359 -1.0063128 0.34035078 0.53240913 -0.30876097
0.07410461 0.5184383 -0.45673895 0.049304746 -0.63980424 0.10642207 0.2546238 3.3735971
-0.3358229 -0.16202687 1.2473229 0.23710996 -0.20694111 -0.13369201 0.33383468 2.3634894
-0.062002905 -0.5882303 0.39273337 0.37857753 -0.67852616 -0.40561897 0.6581623 -0.4163669
1.1879641 -0.17313822 0.10119162 -0.30366457 0.2890295 0.2807967 1.2696346 1.7451899
-0.062645055 1.198485 -0.0012711537 0.7290619 -0.26439464 1.9006779 0.07263347 4.235924
00000000: eea9 60bc f608 413f cf9d a93d bb8d 74be
00000010: 60be 4d3f 168f da3f 9655 c5be cbd4 25bf
00000020: 93ca 27be 705f 0c3f 5c2f 52bf 025d 72be
00000030: 3b44 763f f900 a73e 6c71 ca3d ca4e fdbd
00000040: ffde 833e c13f f8bd 5323 1b3e 50a3 6d3f
00000050: 6961 20bf 38e4 13bf be40 b0be 3c48 a63f
00000060: 0387 16bd e847 663f df93 5f3f ec50 50bf
00000070: 1864 37be f90f 3fbe 8114 04bf e606 cc3f
00000080: 41a0 d63d 0144 6cbd 6b27 1c40 5bcc cabe
00000090: ec13 8d3f bec2 a23f c622 6bbc 3f39 513f
000000a0: 87f0 073e 7765 5a3f dc07 ee3e 714d e23f
000000b0: 2487 313e 2585 f2bd f5dc 193d 3126 b3be
000000c0: f468 5d3f 9c4c 623e 2ea7 65bd 51d8 cfbe
000000d0: 0097 e63f aabf e43f 9692 983f c39a 9d3f
000000e0: bcf0 b4be d792 e7be 688a 733d 8a7b 7a3f
000000f0: fe22 c53e c4fd debe 469e a63f 0800 39be
00000100: eb5b 3dbe eed9 d63f a04a 363e 0615 09bf
00000110: 7d32 3e3f 69de 083d 3416 05bf 55b8 3cbf
00000120: 95da 633e ac91 03bf f329 05bf 8853 41bf
00000130: a0a6 64be 329e cbbd 32af e3bc 3566 42bf
00000140: c6a8 27b9 8169 233f e0f8 543d 8616 0fbd
00000150: dcce 80bf 7542 ae3e f74b 083f eb15 9ebe
00000160: 28c4 973d 5fb8 043f b0d9 e9be c6f3 493d
00000170: 36ca 23bf d0f3 d93d 0d5e 823e 04e9 5740
00000180: fbf0 abbe 5fea 25be 47a8 9f3f f4cc 723e
00000190: 5fe8 53be 8fe6 08be 61ec aa3e 6943 1740
000001a0: c2f6 7dbd 4396 16bf 5914 c93e ead4 c13e
000001b0: e4b3 2dbf 4aad cfbe 537d 283f 0b2e d5be
000001c0: 350f 983f 254b 31be 8d3d cf3d ec79 9bbe
000001d0: adfb 933e 96c4 8f3e 6383 a23f 6262 df3f
000001e0: 0d4c 80bd f567 993f d79c a6ba cda3 3a3f
000001f0: bc5e 87be 6a49 f33f dbc0 943d b08c 8740

mid_part.0.weight f4 [32, 128, 1, 1]
-0.37947738 0.09026911 -0.08387685 -0.37875757 0.32819968 0.33118856 0.02055041 -0.29304504
-0.21716218 -0.16743957 -0.13608678 -0.24341933 -0.24853553 -0.10186721 -0.03430301 0.49453408
0.09440964 -0.7768971 0.32839832 0.047016453 -0.6223422 0.11356121 -0.54978573 0.16687125
0.33574408 0.04045754 -0.3030959 -0.33063376 -0.018383903 -0.49847028 0.21952392 -0.28742415
0.05559539 -0.31746128 0.3684419 0.21214513 0.11963775 -0.0153713375 -0.76326245 0.4750929
-0.120618515 -0.31668738 0.29289648 -0.19615139 0.20126386 -0.24943028 0.6385127 -0.48759356
-0.43891525 -0.19845504 0.35594025 -0.3286302 0.082002975 0.15187335 0.14924857 -0.0053732903
0.45590228 0.6288634 -0.56131965 0.09662308 0.14977135 0.32420415 -0.0038792812 0.09444743
-0.8663773 -0.2997533 0.3912713 0.30579272 0.22183003 0.4396436 0.32725474 -0.2387108
-0.19262062 -0.43326014 -0.08874972 -0.08606236 0.56854635 -0.99943423 0.00091240724 0.37510782
-0.042551454 0.36261007 0.33470008 0.15369354 -0.3411281 0.3341561 0.36012447 -0.023880905
-0.19507709 -0.37619844 -0.4425718 -0.3094806 -0.025606852 0.2852553 -0.6659475 -0.096147925
-0.47556743 0.059343323 0.061712947 -0.015532411 -0.2109972 -0.07472289 -0.02698493 0.30365917
-0.36687106 0.4897787 0.05288331 -0.096135005 -0.22443745 0.33696702 -0.5777699 -0.17409684
-0.22666542 -0.34669766 -0.7508302 0.21353796 -0.04844825 0.0739687 -0.26417112 -0.43218204
-0.24258085 -0.12198529 0.052777447 -0.42128104 0.63330555 0.16770846 0.61220396 0.20044304
-0.098466076 -0.19556126 -0.22111431 0.0049945386 -0.058476597 0.17650795 -0.832442 -0.402964
-0.006154134 0.42362282 -0.23277593 0.7148214 -0.0045763664 0.43512952 -0.3920002 -0.68213356
0.45298934 0.31167316 0.11752181 -0.11226229 0.058511246 0.06945883 -0.43933728 -0.2566504
-0.14028116 -0.2119873 0.179409 -0.34140468 0.347546 0.65933704 -0.4602409 -0.40616453
-0.20848782 -0.152539 0.08282178 0.08576541 0.30237317 0.10372459 0.0053126547 0.0017079501
-0.11121214 0.13548096 0.07691395 -0.052757006 -0.26150963 0.10612089 0.24420118 -0.5795512
-0.014269124 -0.017761527 -0.339987 0.16430894 0.101433285 0.14871109 -0.20247062 0.017947806
0.35245597 -0.34389684 -0.21847308 0.05573171 -0.046396136 -0.15276891 0.19575782 0.008922479
0.2789921 0.19926934 -0.28787902 -0.35418808 -0.4917594 0.24871711 0.09040231 -0.47986847
-0.24980822 0.24130976 -0.5946133 -0.22058947 0.17412326 -0.021539979 -0.0062422156 0.0322884
-0.38514376 0.12133834 0.23507747 0.026891258 -0.08995396 0.19601622 0.004207127 0.2089129
0.05874018 -0.20240222 -0.25220388 0.02335416 0.1189309 -0.08546672 0.13681392 -0.2383884
-0.02949655 -0.0243092 -0.47581765 0.24870065 -0.4652432 0.1643435 0.10183383 0.005745026
0.06881964 -0.13153143 0.35592747 0.16537383 0.1315795 -0.15761365 0.30514887 0.52515036
0.20064214 -0.35079223 -0.09303351 -0.6821479 -0.1859286 0.21444213 0.17948239 0.06550038
0.10801172 -0.29338425 -0.35867023 0.31634572 -0.69729084 0.043178447 0.15294622 0.09159625
00000000: dc4a c2be 03df b83d a0c7 abbd 83ec c1be
00000010: ca09 a83e 8c91 a93e 5559 a83c 000a 96be
00000020: c35f 5ebe 4775 2bbe 555a 0bbe eb42 79be
00000030: 1980 7ebe c19f d0bd 5081 0cbd 9233 fd3e
00000040: d759 c13d bae2 46bf d323 a83e 5394 403d
00000050: d251 1fbf c892 e83d c2be 0cbf 4ce0 2a3e
00000060: a6e6 ab3e ceb6 253d 632f 9bbe d448 a9be
00000070: d799 96bc 7f37 ffbe e1ca 603e 4229 93be
00000080: feb7 633d 498a a2be 6ba4 bc3e 933c 593e
00000090: a304 f53d 10d8 7bbc 2b65 43bf 603f f33e
000000a0: d706 f7bd d924 a2be 87f6 953e e9db 48be
000000b0: 1d18 4e3e a76a 7fbe 9175 233f dda5 f9be
000000c0: 80b9 e0be cc37 4bbe cd3d b63e 3842 a8be
000000d0: 2df1 a73d b084 1b3e 9ed4 183e 6d12 b0bb
000000e0: 066c e93e 31fd 203f a5b2 0fbf 52e2 c53d
000000f0: a95d 193e 16fe a53e 8a3b 7ebb a76d c13d
00000100: e7ca 5dbf 4479 99be b654 c83e dd90 9c3e
00000110: 6927 633e f718 e13e ef8d a73e 9b70 74be
00000120: 573e 45be 46d4 ddbe 6ac2 b5bd 7641 b0bd
00000130: 418c 113f ecda 7fbf 9d2e 6f3a 220e c03e
00000140: 6f4a 2ebd 07a8 b93e cf5d ab3e d761 1d3e
00000150: 58a8 aebe 8216 ab3e 3c62 b83e e3a1 c3bc
00000160: 4ac2 47be 159d c0be c598 e2be 3e74 9ebe
00000170: 76c5 d1bc fc0c 923e 897b 2abf 34e9 c4bd
00000180: 937d f3be fc11 733d b7c6 7c3d a77b 7ebc
00000190: a60f 58be 5108 99bd 800f ddbc 3779 9b3e
000001a0: 86d6 bbbe 46c4 fa3e 2b9c 583d 6ee2 c4bd
000001b0: eed2 65be f186 ac3e bae8 13bf 7146 32be
000001c0: fb1a 68be 5b82 b1be 6836 40bf b2a9 5a3e
000001d0: ac71 46bd e77c 973d 7041 87be f746 ddbe
000001e0: 1d67 78be 6cd3 f9bd 2a2d 583d 26b2 d7be
000001f0: 5020 223f c4bb 2b3e 66b9 1c3f f140 4d3e
00000200: 95a8 c9bd 3641 48be ca6b 62be 3aa9 a33b
00000210: 2885 6fbd 80be 343e eb1a 55bf 4c51 cebe
00000220: 9ea8 c9bb 17e5 d83e d05c 6ebe 89fe 363f
00000230: 58f5 95bb 4cc9 de3e 40b4 c8be 4ea0 2ebf
00000240: 38ee e73e a093 9f3e 46af f03d c6e9 e5bd
00000250: 7da9 6f3d 6e40 8e3d d1f0 e0be ae67 83be
00000260: dda5 0fbe 3313 59be feb6 373e 98cc aebe
00000270: 8df1 b13e 50ca 283f b2a4 ebbe ccf4 cfbe
00000280: d57d 55be 2f33 1cbe 779e a93d c6a5 af3d
00000290: a8d0 9a3e 8f6d d43d c715 ae3b 4cdd df3a
000002a0: 31c3 e3bd 85bb 0a3e 1085 9d3d bb17 58bd
000002b0: 97e4 85be e955 d93d e00f 7a3e 785d 14bf
000002c0: 0bc9 69bc 9f80 91bc c712 aebe 9a40 283e
000002d0: 41bc cf3d b847 183e 7554 4fbe 4707 933c
000002e0: 1c75 b43e 3f13 b0be 68b7 5fbe ef46 643d
000002f0: e009 3ebd 746f 1cbe bd74 483e 972f 123c
00000300: 0dd8 8e3e 430d 4c3e e164 93be 2458 b5be
00000310: e3c7 fbbe b3af 7e3e d924 b93d 52b1 f5be
00000320: bacd 7fbe e819 773e 9438 18bf 35e2 61be
00000330: 5e4d 323e 9c74 b0bc 808b ccbb d740 043d
00000340: 9031 c5be 3c80 f83d 26b8 703e 0e4b dc3c
00000350: c839 b8bd 7ab8 483e f0db 893b 43ed 553e
00000360: 8b99 703d 8742 4fbe de20 81be 3951 bf3c
00000370: 0b92 f33d 2d09 afbd f318 0c3e 171c 74be
00000380: c0a2 f1bc 1624 c7bc 5f9e f3be 62ab 7e3e
00000390: 5b34 eebe aa49 283e 418e d03d c540 bc3b
000003a0: 50f1 8c3d 2db0 06be 203c b63e c257 293e
000003b0: c7bc 063e 7965 21be 793c 9c3e 4170 063f
000003c0: 2275 4d3e 0a9b b3be 5a88 bebd 3fa1 2ebf
000003d0: 1164 3ebe b896 5b3e 3bca 373e 1025 863d
000003e0: 4035 dd3d 7636 96be a0a3 b7be 11f8 a13e
000003f0: a781 32bf e2db 303d ef9d 1c3e d196 bb3d

mid_part.0.bias f4 [32]
-0.018084824 0.083806396 0.060889315 -0.05740279 0.07248357 -0.031765416 0.018876161 0.013718222
0.009476652 0.046539195 -0.11936291 0.07982496 -0.057864625 -0.04406703 0.018047696 -0.058734246
-0.011059128 0.037221726 -0.0012664922 0.024811262 -0.018303202 -0.11490413 -0.0093937665 -0.01787013
-0.061101206 -0.0017983437 0.04935399 -0.015308617 0.031778026 -0.027687365 0.05533203 -0.084377006
00000000: a026 94bc b0a2 ab3d 1367 793d 301f 6bbd
00000010: 4472 943d 741c 02bd 2ea2 9a3c 65c2 603c
00000020: f643 1b3c e29f 3e3d 8b74 f4bd 457b a33d
00000030: 7503 6dbd a17f 34bd c3d8 933c 5293 70bd
00000040: 5831 35bc cf75 183d 6d00 a6ba fd40 cb3c
00000050: 99f0 95bc db52 ebbd 50e8 19bc 6164 92bc
00000060: 4245 7abd 67b6 ebba 6927 4a3d fed0 7abc
00000070: ad29 023d 9dd0 e2bc d7a3 623d dacd acbd

mid_part.1.weight f4 [32]
0.053148113 0.28241956 0.9161251 0.95581883 0.35301608 0.30412814 -0.17704739 0.9269296
0.2487635 0.45055482 1.0676485 0.37812057 0.76585984 0.018150395 0.4388626 1.0073806
-0.24374954 0.5418212 0.9267169 1.0826546 0.38172442 0.7788178 0.43970916 0.9630486
0.65580434 1.0337943 0.23577322 0.87197757 0.90003353 0.9454848 0.27185914 1.049953
00000000: d6b1 593d 4c99 903e 2d87 6a3f 8bb0 743f
00000010: 86be b43e afb6 9b3e e94b 35be 424b 6d3f
00000020: dcbb 7e3e 1faf e63e b5a8 883f 0599 c13e
00000030: 640f 443f 23b0 943c 99b2 e03e d9f1 803f
00000040: 7b99 79be cbb4 0a3f 523d 6d3f 6d94 8a3f
00000050: 6271 c33e 9a60 473f 8f21 e13e 5a8a 763f
00000060: cbe2 273f 5f53 843f 896e 713e ec39 5f3f
00000070: 9968 663f 4b0b 723f 1f31 8b3e dc64 863f

mid_part.2.weight f4 [32, 32, 3, 3]
0.051437493 0.032394517 -0.019604107 0.1149135 -0.011680302 -0.13516118 0.13803998 -0.03833646
0.11909364 0.041887134 0.16777648 0.090089284 0.050756536 0.17311928 0.34624928 0.032659244
0.13447644 -0.1808264 0.028281132 0.19276789 0.12663284 -0.20250678 0.013572704 0.26456383
-0.10975485 -0.00056563277 0.22296892 -0.17997156 0.08199243 0.081931666 0.008119101 -0.098965816
0.054912604 -0.0366657 -0.26477626 0.084970005 0.06590366 0.19499676 0.16379884 -0.24884929
0.21258616 0.16729258 -0.039552756 -0.16377957 -0.061775193 0.10625791 0.012515199 -0.24681222
-0.09486934 0.12235717 -0.01988288 0.07967396 0.031462032 0.066287614 0.17096606 0.12124058
0.13554995 -0.04995342 0.038740516 -0.09079595 0.11915796 0.015088219 0.2396999 -0.05931857
0.11391243 0.121044636 -0.079414286 0.032198828 0.15569293 -0.14301322 -0.00550307 -0.12268467
-0.24889316 -0.1537956 -0.04167834 0.16328824 -0.07128027 -0.061034475 -0.028118024 0.20944256
0.11714416 -0.3374071 -0.17170364 -0.29588372 -0.18368064 -0.0039512445 -0.18748428 -0.028448269
-0.101660855 -0.045991935 -0.059817802 0.09703965 0.008209737 -0.14573018 0.10997814 -0.06182262
-0.11442646 0.043602943 0.046260722 -0.12904707 -0.06907363 -0.04609319 -0.001277168 -0.011110379
-0.044207923 -0.079767846 -0.02995697 -0.22897136 -0.096372925 0.043685243 0.07889378 -0.059075553
0.28422132 0.049301874 -0.15363865 -0.051439334 -0.027350739 0.01615662 -0.09676877 -0.13495016
0.01128032 -0.014982888 0.032860097 0.015135171 0.18971579 -0.17040731 0.091063604 -0.11549952
0.13541153 0.08542345 -0.15682848 -0.05930905 0.15674427 0.25859717 0.17380023 0.03620355
0.11371024 0.065205455 0.029525032 -0.082902454 -0.08568599 -0.053075556 -0.042377923 0.17468998
0.060710922 0.0318744 0.09173357 0.11631434 -0.05153249 -0.034300562 0.044399034 0.3576709
0.10307143 0.03676273 -0.15967537 -0.16961972 -0.10319514 0.139682 -0.03902377 -0.025050202
-0.20783205 0.04181928 -0.19234225 -0.18667634 0.14237702 0.2913946 0.05017125 -0.2358839
0.3098992 0.14134872 -0.18285011 -0.05332111 -0.09550665 -0.30895132 -0.27645427 0.15187286
-0.114735566 -0.25913924 0.23150735 0.16691837 -0.017926954 -0.1413101 0.293613 0.098225445
-0.18285781 -0.036048576 0.5542074 0.042271934 0.005850276 0.17494723 0.061960805 -0.0056839744
0.1780294 -0.343774 -0.19156052 0.38022214 -0.28048235 -0.10629377 -0.14411409 -0.25291857
0.16737536 0.1611981 -0.27578226 0.14808525 0.04240543 -0.32693923 -0.12589553 0.08783752
0.08029169 0.12884398 0.04388061 0.011840919 0.048897788 -0.14329256 -0.22173579 0.02116559
0.23892789 0.057339914 0.020832583 0.035214085 -0.0026595201 0.09138147 0.05121063 0.18643154
0.12369845 -0.010881525 0.01149916 0.21281591 -0.09075003 -0.1520122 0.102530025 0.16220932
-0.34837407 0.027138103 -0.1220294 -0.081915215 -0.29534695 0.08084923 -0.17288594 -0.22919025
-0.23883113 -0.01710905 -0.10302396 -0.18537524 0.24971491 0.1585384 -0.16559452 -0.17879537
0.03897374 -0.079334654 0.019926935 0.06095221 0.038765647 0.05956164 0.017432077 -0.015701137
00000000: 1fb0 523d 1db0 043d cb98 a0bc c557 eb3d
00000010: bd5e 3fbc b167 0abe 5a5a 0d3e b106 1dbd
00000020: 5ee7 f33d d891 2b3d 99cd 2b3e bb80 b83d
00000030: 16e6 4f3d 2e46 313e 9647 b13e b3c5 053d
00000040: 31b4 093e 8e2a 39be d5ad e73c f264 453e
00000050: 0aac 013e f05d 4fbe 0c60 5e3c e974 873e
00000060: 27c7 e0bd f946 14ba f751 643e 774a 38be
00000070: a6eb a73d cacb a73d fa05 053c 97ae cabd
00000080: 0aec 603d c62e 16bd c190 87be c104 ae3d
00000090: 80f8 863d 3bad 473e e2ba 273e 59d2 7ebe
000000a0: 30b0 593e bf4e 2b3e 1202 22bd d5b5 27be
000000b0: fc07 7dbd bf9d d93d 8d0c 4d3c 58bc 7cbe
000000c0: db4a c2bd 6596 fa3d 6ce1 a2bc 1a2c a33d
000000d0: 55de 003d cdc1 873d ba11 2f3e fb4c f83d
000000e0: 9bcd 0a3e f59b 4cbd 60ae 1e3d 3af3 b9bd
000000f0: 1709 f43d 9434 773c e473 753e 07f8 72bd
00000100: ec4a e93d 40e6 f73d f5a3 a2bd ebe2 033d
00000110: f86d 1f3e 0f72 12be 1953 b4bb 1a42 fbbd
00000120: d9dd 7ebe 987c 1dbe e8b6 2abd 0835 273e
00000130: 64fb 91bd 49ff 79bd c557 e6bc 1c78 563e
00000140: 47e9 ef3d a0c0 acbe 14d3 2fbe 127e 97be
00000150: c716 3cbe 7179 81bb e1fb 3fbe 580c e9bc
00000160: 9133 d0bd 0a62 3cbd 8303 75bd b9bc c63d
00000170: 2282 063c 4b3a 15be 383c e13d b739 7dbd
00000180: 6b58 eabd 0099 323d e27b 3d3d ea24 04be
00000190: 7a76 8dbd 36cc 3cbd a666 a7ba 4f08 36bc
000001a0: 5e13 35bd 535d a3bd 5268 f5bc 7877 6abe
000001b0: 2b5f c5bd 4cef 323d 1093 a13d 35f9 71bd
000001c0: 7585 913e c3f0 493d 7353 1dbe 0db2 52bd
000001d0: a80e e0bc e35a 843c b42e c6bd 6030 0abe
000001e0: 17d1 383c c97a 75bc 4f98 063d 82f9 773c
000001f0: db44 423e 417f 2ebe 8e7f ba3d 038b ecbd
00000200: 52a9 0a3e 7df2 ae3d a597 20be 0cee 72bd
00000210: 9281 203e d966 843e b0f8 313e 2c4a 143d
00000220: eae0 e83d 708a 853d 7bde f13c c3c8 a9bd
00000230: 237c afbd c165 59bd 7994 2dbd eee1 323e
00000240: 04ac 783d bb8e 023d cfde bb3d 3636 ee3d
00000250: bb13 53bd bf7e 0cbd c3db 353d a420 b73e
00000260: 1d17 d33d 8494 163d f181 23be cbb0 2dbe
00000270: f957 d3bd cc08 0f3e 63d7 1fbd 1536 cdbc
00000280: edd1 54be b14a 2b3d 5ef5 44be 1528 3fbe
00000290: 48cb 113e ac31 953e 5e80 4d3d 8d8b 71be
000002a0: 1cab 9e3e b8bd 103e 0f3d 3bbe 3c67 5abd
000002b0: fe98 c3bd de2e 9ebe 6a8b 8dbe 8f84 1b3e
000002c0: 7bfa eabd e6ad 84be 4310 6d3e a6ec 2a3e
000002d0: 8cdb 92bc 98b3 10be 7154 963e 6c2a c93d
000002e0: 143f 3bbe aca7 13bd 89e0 0d3f 5625 2d3d
000002f0: acb3 bf3b 5e25 333e 9dca 7d3d a240 babb
00000300: 574d 363e 2503 b0be 7128 44be 7aac c23e
00000310: 629b 8fbe 8cb0 d9bd a592 13be 8b7e 81be
00000320: 7264 2b3e 1d11 253e 5533 8dbe a9a3 173e
00000330: 51b1 2d3d 9464 a7be c2ea 00be 28e4 b33d
00000340: f86f a43d adef 033e 28bc 333d 6a00 423c
00000350: 0c49 483d 49bb 12be b50e 63be 7663 ad3c
00000360: 83a9 743e 42dd 6a3d 18a9 aa3c a53c 103d
00000370: 584b 2ebb 3526 bb3d 3dc2 513d e9e7 3e3e
00000380: 9d55 fd3d 6d48 32bc f966 3c3c 6aec 593e
00000390: 27db b9bd 16a9 1bbe 43fb d13d 331a 263e
000003a0: 165e b2be ba50 de3c 8dea f9bd 2ac3 a7bd
000003b0: b737 97be 4894 a53d 0309 31be d9b0 6abe
000003c0: 2690 74be 4728 8cbc 3afe d2bd 02d3 3dbe
000003d0: 44b5 7f3e e457 223e 9c91 29be 2216 37be
000003e0: eea2 1f3d 357a a2bd d03d a33c 06a9 793d
000003f0: bac8 1e3d e8f6 733d b7cd 8e3c ac9f 80bc

mid_part.2.bias f4 [32]
0.1231278 0.15284355 0.17949635 -0.012655035 0.04405501 0.04765241 -0.15989323 -0.009462578
-0.0055318614 -0.025843931 -0.00024677266 0.13978903 0.057446547 0.05140217 -0.21840979 0.09410365
-0.055582557 -0.41932547 -0.044411123 0.06816076 -0.06754898 0.029403334 0.043986276 0.0041824263
-0.16413017 0.0063288934 0.19956283 -0.013241253 -0.013498724 0.029426513 0.017195668 0.0031942122
00000000: 6e2a fc3d 0583 1c3e e4cd 373e 1057 4fbc
00000010: 0773 343d 2c2f 433d 0dbb 23be ee08 1bbc
00000020: 9e44 b5bb a7b6 d3bc 4461 81b9 db24 0f3e
00000030: 124d 6b3d 158b 523d d1a6 5fbe 6ab9 c03d
00000040: 89aa 63bd d4b1 d6be 70e8 35bd de97 8b3d
00000050: 1f57 8abd 43df f03c f42a 343d bc0c 893b
00000060: bd11 28be 9b62 cf3b 335a 4c3e d7f1 58bc
00000070: c129 5dbc df0f f13c eedd 8c3c fd55 513b

mid_part.3.weight f4 [32]
-0.17893168 -0.074394345 0.095998764 1.0139675 0.2879222 1.006735 0.13158675 0.91718894
0.92879486 0.8156372 0.25398228 0.58480024 0.019505218 0.47978696 0.31864628 0.8583674
1.0092155 0.00087813946 0.46708366 0.9988359 0.89554673 0.2218511 -0.069913186 0.09333876
0.3985287 1.0097537 0.946745 0.31667078 0.01667691 0.7807718 -0.013962214 0.98620677
00000000: de39 37be 105c 98bd 009b c43d b0c9 813f
00000010: 8a6a 933e b1dc 803f adbe 063e e5cc 6a3f
00000020: 80c5 6d3f 99cd 503f f709 823e 78b5 153f
00000030: 68c9 9f3c a3a6 f53e 9b25 a33e f7bd 5b3f
00000040: f92d 813f f132 663a 9725 ef3e b6b3 7f3f
00000050: 8d42 653f ef2c 633e a52e 8fbd 6428 bf3d
00000060: f40b cc3e 9c3f 813f e15d 723f ac22 a23e
00000070: 049e 883c a9e0 473f c5c1 64bc 0c78 7c3f

mid_part.4.weight f4 [32, 32, 3, 3]
0.21395789 -0.100952774 -0.026576955 -0.059501823 0.032917105 0.028797481 -0.14773323 -0.07713295
0.050766412 0.031398334 0.053014245 0.00042619297 -0.12033787 0.10322255 0.021061677 0.1468428
-0.10555437 -0.037708323 -0.22318344 0.07016267 0.17392504 -0.13887072 0.23959652 0.27839002
0.24728784 -0.042196088 -0.0070432257 0.18992428 0.016255965 -0.07233874 0.05340724 -0.18105194
0.07879365 -0.13949354 -0.14252895 -0.05196116 0.10520259 -0.11662472 0.048190627 0.0381112
0.087989025 0.026078992 0.0572824 0.19161351 -0.03274976 0.06806754 0.22408119 -0.07472702
-0.19421469 0.05458482 -0.050455768 -0.037812226 -0.016747633 0.032391183 -0.0027782544 -0.18694645
-0.035722107 0.38654533 0.568213 0.31440264 0.27213314 0.1506104 0.09653571 -0.21673095
-0.009868132 -0.015496798 0.042971645 0.07086182 -0.18804143 -0.24214779 0.028648531 -0.2528533
-0.061393574 0.061574403 -0.20403124 0.028332865 -0.043480862 -0.1620956 0.37799415 0.14783125
0.011393736 0.218089 0.081579894 -0.05363774 0.085685164 -0.14670807 -0.009650034 0.18078022
0.15805699 0.065164536 -0.123941034 -0.21600592 -0.09492604 0.07732187 -0.055232055 0.012637426
0.21893555 0.0065824883 0.06285314 0.059986014 -0.13193184 0.29782248 0.1263322 0.12569074
0.17113471 0.045266565 -0.09070867 -0.026021605 0.016198056 0.17057684 0.10608103 -0.010126808
0.06758031 -0.100122824 -0.09653085 -0.1614609 -0.09608614 0.27558953 0.05698436 -0.11778822
0.09355232 -0.10341791 0.0065568746 -0.042093344 -0.066780955 -0.10844931 0.0920269 -0.17402193
0.11955117 -0.037931297 0.100851595 -0.033815883 0.031858973 -0.07356354 0.06431934 0.036634825
-0.3074433 -0.18217024 0.057135355 -0.08063489 0.009464532 -0.06138007 0.029369952 0.009864594
-0.16701342 -0.20588727 0.085286304 -0.1881205 -0.32250413 -0.087446496 0.1412494 0.067479074
-0.06528073 -0.31651786 0.072758555 -0.29265827 0.10662974 -1.195632 0.6929941 0.20135336
-0.4215121 0.26745105 -0.018036082 -0.22058232 0.04856423 0.020083385 0.11979007 0.16369022
-0.08987734 -0.059613988 -0.16444564 -0.019247388 0.18650812 -0.049433034 0.03646747 -0.10401137
0.028672066 0.027046237 0.08917319 0.046175364 0.015487747 0.21386412 0.22233458 -0.1202238
0.31066605 -0.025447754 -0.21105754 0.0010138524 -0.109245725 -0.0046222163 0.10192357 -0.07371153
-0.034764968 0.09738272 -0.060886633 -0.073498204 0.036922 -0.097997084 0.11634165 -0.11144863
0.29951757 -0.1995287 -0.059332743 0.1014432 0.054721184 -0.021642307 0.111779206 -0.0035196128
0.1614535 0.072268866 -0.02410864 -0.018340366 -0.02300373 -0.15981568 -0.12699543 -0.09771942
-0.036835752 -0.21131875 0.016775561 -0.061901093 -0.19968694 0.18287094 0.057126205 -0.046810348
0.122170545 0.11763143 -0.06911499 0.018614387 0.011261071 0.040123064 0.011988725 -0.008910061
-0.15810513 -0.0032625843 0.19985087 -0.010053858 0.09444582 -0.1665615 -0.02487483 0.103010535
-0.001943469 0.06270018 -0.0049583204 0.24706481 0.25313193 0.0073821982 0.42238384 0.05601363
0.048338074 0.016814834 -0.11540401 -0.119685315 0.0007036591 -0.08351124 -0.18005125 0.03178318
00000000: c717 5b3e 54c0 cebd eab7 d9bc 2fb8 73bd
00000010: 16d4 063d b2e8 eb3c 6147 17be e1f7 9dbd
00000020: 71f0 4f3d 8a9b 003d 7725 593d a772 df39
00000030: b473 f6bd 5866 d33d 8a89 ac3c f55d 163e
00000040: e42c d8bd 0b74 1abd 338a 64be 72b1 8f3d
00000050: 6819 323e 2034 0ebe ca58 753e 2389 8e3e
00000060: 0639 7d3e ced5 2cbd dcca e6bb 837b 423e
00000070: 3b2b 853c 5526 94bd 8dc1 5a3d ae65 39be
00000080: 915e a13d 65d7 0ebe 1cf3 11be 3ad5 54bd
00000090: 7574 d73d f1d8 eebd 8963 453d 7d1a 1c3d
000000a0: 9733 b43d 9ca3 d53c f3a0 6a3d 5536 443e
000000b0: 9d24 06bd ff66 8b3d 8a75 653e 7b0a 99bd
000000c0: 37e0 46be 5594 5f3d b5aa 4ebd fee0 1abd
000000d0: 5532 89bc 9eac 043d 6013 36bb e46e 3fbe
000000e0: 5851 12bd 45e9 c53e 6876 113f 62f9 a03e
000000f0: 0955 8b3e 9d39 1a3e 84b4 c53d b8ee 5dbe
00000100: f2ad 21bc 48e6 7dbc 0903 303d 0020 913d
00000110: ef8d 40be 97f5 77be 53b0 ea3c fd75 81be
00000120: d477 7bbd 7135 7c3d 91ed 50be 531a e83c
00000130: fd18 32bd 64fc 25be 7388 c13e 1361 173e
00000140: cbac 3a3c b952 5f3e 5c13 a73d 3fb3 5bbd
00000150: b47b af3d a43a 16be 2d1b 1ebc 731e 393e
00000160: b1d9 213e fc74 853d ccd4 fdbd a830 5dbe
00000170: 9568 c2bd ee5a 9e3d 023b 62bd 350d 4f3c
00000180: a430 603e eab1 d73b 26b9 803d e5b3 753d
00000190: 2419 07be 307c 983e 3a5d 013e 13b5 003e
000001a0: f03d 2f3e 6f69 393d 78c5 b9bd 432b d5bc
000001b0: c9b1 843c b2ab 2e3e 0341 d93d e9ea 25bc
000001c0: 8c67 8a3d 320d cdbd f7b1 c5bd 0256 25be
000001d0: cfc8 c4bd 121a 8d3e 6f68 693d f33a f1bd
000001e0: 5c98 bf3d c5cc d3bd 0ddb d63b 126a 2cbd
000001f0: 74c4 88bd ac1a debd 9978 bc3d ce32 32be
00000200: 3ed7 f43d d95d 1bbd 488b ce3d 8682 0abd
00000210: 8e7e 023d 7ba8 96bd dcb9 833d 660e 163d
00000220: 3569 9dbe d68a 3abe c306 6a3d e823 a5bd
00000230: 2011 1b3c ab69 7bbd 4199 f03c 1b9f 213c
00000240: 9105 2bbe 1dd4 52be 96aa ae3d a9a2 40be
00000250: 431f a5be 2617 b3bd afa3 103e 7832 8a3d
00000260: e7b1 85bd a10e a2be 7002 953d 4ed7 95be
00000270: b160 da3d 780a 99bf 1068 313f 932f 4e3e
00000280: 6fd0 d7be 58ef 883e 68c0 93bc 55e0 61be
00000290: 49eb 463d e985 a43c 7f54 f53d 699e 273e
000002a0: 9c11 b8bd cc2d 74bd 7064 28be b3ac 9dbc
000002b0: fcfb 3e3e 4b7a 4abd ea5e 153d ea03 d5bd
000002c0: aee1 ea3c 1290 dd3c 6fa0 b63d 6122 3d3d
000002d0: 52c0 7d3c 32ff 5a3e adab 633e e537 f6bd
000002e0: 9f0f 9f3e cf77 d0bc 781f 58be 3ee3 843a
000002f0: 39bc dfbd f675 97bb 4ebd d03d 12f6 96bd
00000300: b665 0ebd 9770 c73d 4364 79bd 3a86 96bd
00000310: 863b 173d b2b2 c8bd 8844 ee3d 2e3f e4bd
00000320: 5e5a 993e 4051 4cbe e406 73bd 74c1 cf3d
00000330: 5223 603d 354b b1bc 7fec e43d 4ea9 66bb
00000340: 1154 253e b301 943d 7c7f c5bc 893e 96bc
00000350: 5272 bcbc b9a6 23be 170b 02be 1f21 c8bd
00000360: 16e1 16bd f163 58be e76c 893c 008c 7dbd
00000370: bc7a 4cbe 8542 3b3e 2bfd 693d 35bc 3fbd
00000380: 8d34 fa3d bfe8 f03d 298c 8dbd 337d 983c
00000390: 5b80 383c 1558 243d 5b6c 443c 81fb 11bc
000003a0: 50e6 21be 15d1 55bb b5a5 4c3e f0b8 24bc
000003b0: cf6c c13d 198f 2abe 4dc6 cbbc 30f7 d23d
000003c0: 00bc feba f468 803d 6879 a2bb 8ffe 7c3e
000003d0: 829a 813e 5ee6 f13b b242 d83e 8c6e 653d
000003e0: 25fe 453d 43bf 893c f058 ecbd 931d f5bd
000003f0: c375 383a f107 abbd 5b5f 38be 142f 023d

mid_part.4.bias f4 [32]
0.15941086 0.06137198 -0.009784475 -0.5441021 0.03149113 0.07712635 0.105194144 0.034593083
-0.034334768 -0.04014922 -0.2954513 -0.26032624 0.1465497 -0.10294605 0.012284856 -0.014206237
0.010823233 0.17236952 0.07650787 0.09241927 0.11046399 0.010933162 0.21303593 0.042411555
0.08689213 0.12512602 -0.02283057 0.040163588 0.102374196 0.018252956 -0.07004916 0.13069762
00000000: 9a3c 233e 2f61 7b3d 104f 20bc 464a 0bbf
00000010: d8fc 003d 6bf4 9d3d 0770 d73d 7ab1 0d3d
00000020: 9da2 0cbd 8273 24bd 6545 97be 7b49 85be
00000030: 2011 163e 61d5 d2bd 6c46 493c 47c1 68bc
00000040: ee53 313c a381 303e 28b0 9c3d 5046 bd3d
00000050: f23a e23d 0121 333c 1726 5a3e bdb7 2d3d
00000060: 80f4 b13d 0921 003e 2d07 bbbc 9382 243d
00000070: 90a9 d13d 3987 953c ef75 8fbd 99d5 053e

mid_part.5.weight f4 [32]
0.8223989 -0.042984612 0.8586065 0.0055810106 0.9123359 0.9562202 0.9958337 -0.031097805
1.0109247 0.16517094 0.047647934 0.09072232 0.026007487 0.08393971 0.04687809 0.85772777
1.0506846 1.0145408 -0.06364263 -0.1813186 -0.3667143 0.90092105 -0.27893105 0.81916296
0.020326236 1.0543623 0.45015588 0.9370036 1.1658213 1.0019387 0.8393127 0.97960603
00000000: bc88 523f a210 30bd a3cd 5b3f e9e0 b63b
00000010: d88e 693f d9ca 743f f5ee 7e3f d3c0 febc
00000020: fb65 813f 9222 293e 7b2a 433d a0cc b93d
00000030: a70d d53c 95e8 ab3d 3d03 403d 0c94 5b3f
00000040: d57c 863f 79dc 813f 1157 82bd 95ab 39be
00000050: fac1 bbbe c3a2 663f 0dd0 8ebe aab4 513f
00000060: 3583 a63c 58f5 863f d57a e63e 78df 6f3f
00000070: a239 953f 873f 803f 32dd 563f 76c7 7a3f

mid_part.6.weight f4 [32, 32, 3, 3]
0.14512111 0.042021118 -0.10565955 -0.06023006 -0.12703148 0.011386703 0.08159271 -0.10351976
-0.076324105 -0.1277742 -0.10643964 -0.18000603 -0.0037658075 0.014227971 -0.24207869 -0.012369268
0.113023125 -0.28921965 0.18577753 -0.07355167 0.120548196 0.15444554 0.29297462 -0.09517729
-0.018442033 0.078814365 -0.031812657 -0.1378934 -0.3268264 -0.17478317 -0.20185275 0.028883206
0.21728191 -0.8833647 -0.6012641 -0.8614261 -0.03274632 -0.15649034 -0.16222197 0.14999706
0.110888176 0.08568182 -0.0077400194 -0.061490238 0.18001612 -0.009998352 0.104615815 -0.08668189
0.12389667 -0.072394215 0.082579546 0.026386645 -0.009083707 0.21011797 -0.012446232 -0.19816786
-0.14232188 0.17187217 -0.08547285 0.07158541 0.035258256 -0.10126445 -0.037843775 -0.107198715
0.12360391 -0.22279169 -0.021548534 0.15450683 -0.17615241 0.022277428 -0.08620018 -0.07392101
-0.17587526 -0.033546027 -0.13598002 -0.14057496 0.057701882 0.111616425 -0.13770066 -0.04250494
0.0013505822 -0.092594855 -0.15329994 -0.054619502 0.05880449 -0.12101018 -0.09883815 0.034956854
0.106258474 0.0018389175 0.16331089 0.050219856 -0.7422712 0.04882702 -0.29110658 -0.34790334
0.19925499 -0.1562089 0.101861976 0.07088297 -0.07394447 0.049940355 -0.2640331 -0.009285306
0.10384283 0.02921409 -0.01929144 -0.05166183 0.13413772 0.0021944225 0.14783816 0.22971153
0.029396994 0.3606585 0.0024492186 0.11046252 0.28547335 -0.120443925 -0.26140487 -0.14604422
0.06475139 -0.047477305 0.1263821 -0.05749103 -0.03069173 0.124654405 0.037863858 -0.25142848
0.037269797 0.06893861 -0.08085267 0.047600094 0.081467636 0.021690382 -0.039626144 -0.069471106
-0.21623279 -0.28399444 -0.08231411 -0.17273544 -0.04517105 -0.07916087 -0.042902812 0.029182507
0.11991994 -0.04868221 -0.15341236 0.097773485 0.18826151 0.09043184 0.070805274 0.019239424
0.1865771 0.143228 -0.26197425 -0.15365593 -0.013916356 -0.098041445 0.059595294 0.05464416
-0.04225488 0.1653887 0.06506099 -0.053742256 0.02777201 0.017185597 -0.08274283 0.074341916
-0.107513145 -0.093320444 -0.0058134045 0.012690723 0.12782262 -0.13718243 0.3367029 0.11669497
0.052338563 0.19280185 0.20014507 0.09327086 -0.080566965 0.07352142 -0.04425038 0.168032
0.18346632 0.107346505 0.1400265 0.1704811 0.13886805 -0.15823096 -0.1985486 0.17076102
0.13769788 0.02161161 -0.074139886 0.2451358 0.06682349 -0.1490971 0.07443467 -0.14989199
-0.08372809 -0.05929015 0.026345454 0.16355442 -0.04645754 -0.010010546 -0.089732975 0.04419394
0.08810201 -0.1567872 -0.15631253 0.10984786 -0.043858863 0.09453613 0.0074739014 0.027177092
-0.12907512 -0.0019031336 -0.3242458 -0.06422512 0.14666364 -0.2320165 -0.18250793 -0.0030929274
-0.21175016 -0.06990397 -0.0009154435 -0.03470356 0.04525234 0.038195122 0.0062176166 -0.09130736
0.030899944 0.013603149 -0.097545184 0.0745291 0.09895841 0.075205185 -0.028001422 0.030790005
0.082301386 0.031475835 0.040149987 0.07174011 -0.14791818 -0.008221459 0.082930826 0.3788804
0.084895186 0.056395058 0.036084607 -0.12624975 0.07518104 0.103217945 -0.14378184 -0.13020214
00000000: a19a 143e 561e 2c3d 0964 d8bd ccb3 76bd
00000010: 8a14 02be 4b8f 3a3c 141a a73d 2b02 d4bd
00000020: d04f 9cbd 3dd7 02be 07fd d9bd 8053 38be
00000030: c4cb 76bb 701c 693c 7ae3 77be 78a8 4abc
00000040: ab78 e73d 9914 94be 773c 3e3e 42a2 96bd
00000050: f9e1 f63d f926 1e3e c500 963e 50ec c2bd
00000060: bf13 97bc 6d69 a13d fd4d 02bd ed33 0dbe
00000070: ca55 a7be 5cfa 32be 7db2 4ebe 799c ec3c
00000080: 267f 5e3e 3024 62bf 72ec 19bf 6c86 5cbf
00000090: 0121 06bd 013f 20be 841d 26be d498 193e
000000a0: 5719 e33d f379 af3d fd9f fdbb 30dd 7bbd
000000b0: 2556 383e 21d0 23bc d140 d63d 4686 b1bd
000000c0: 8abd fd3d 6b43 94bd 771f a93d ce28 d83c
000000d0: d4d3 14bc 2a29 573e 48eb 4bbc 84ec 4abe
000000e0: d4bc 11be 42ff 2f3e 640c afbd 5f9b 923d
000000f0: f66a 103d bc63 cfbd 1302 1bbd 008b dbbd
00000100: 0c24 fd3d 8123 64be 8d86 b0bc 0a37 1e3e
00000110: 4c61 34be 277f b63c b889 b0bd e663 97bd
00000120: a518 34be 8f67 09bd 593e 0bbe e2f2 0fbe
00000130: cf58 6c3d 2797 e43d 6701 0dbe a919 2ebd
00000140: 0506 b13a 5fa2 bdbd a9fa 1cbe b3b8 5fbd
00000150: fadc 703d 2fd4 f7bd a86b cabd eb2e 0f3d
00000160: 0b9e d93d d507 f13a f83a 273e 56b3 4d3d
00000170: 7c05 3ebf d7fe 473d ec0b 95be 6320 b2be
00000180: 8009 4c3e 3af5 1fbe 039d d03d 172b 913d
00000190: 3370 97bd 428e 4c3d 592f 87be 6521 18bc
000001a0: 8dab d43d 6352 ef3c 1509 9ebc 5b9b 53bd
000001b0: 665b 093e 4dd0 0f3b e362 173e 8039 6b3e
000001c0: f7d1 f03c 3ba8 b83e 1283 203b 2c3a e23d
000001d0: 9029 923e 4eab f6bd dcd6 85be 9e8c 15be
000001e0: 609c 843d 9077 42bd 4f6a 013e b77b 6bbd
000001f0: 396d fbbc cf4a ff3d 2217 1b3d 3cbb 80be
00000200: 37a8 183d b02f 8d3d 1696 a5bd 51f8 423d
00000210: 81d8 a63d 07b0 b13c 064f 22bd de46 8ebd
00000220: 216c 5dbe b867 91be 4d94 a8bd 8fe1 30be
00000230: 4705 39bd 181f a2bd dcba 2fbd 2710 ef3c
00000240: 9698 f53d ff66 47bd 2118 1dbe 773d c83d
00000250: a0c7 403e 5434 b93d 5b02 913d ff9b 9d3c
00000260: 110e 3f3e 5caa 123e 7d21 86be fb57 1dbe
00000270: 6d01 64bc f4c9 c8bd 321a 743d 8ed2 5f3d
00000280: 7413 2dbd a85b 293e b23e 853d d720 5cbd
00000290: 2082 e33c cfc8 8c3c 1375 a9bd 9340 983d
000002a0: da2f dcbd ca1e bfbd 5f7e bebb c0ec 4f3c
000002b0: efe3 023e 8d79 0cbe 5364 ac3e c6fd ee3d
000002c0: f660 563d d96d 453e d4f2 4c3e cb04 bf3d
000002d0: 4b00 a5bd 6692 963d e33f 35bd 9510 2c3e
000002e0: 98de 3b3e 7cd8 db3d 1b63 0f3e 9992 2e3e
000002f0: 6d33 0e3e 4c07 22be 5350 4bbe fadb 2e3e
00000300: ac00 0d3e d50a b13c a7d6 97bd e104 7b3e
00000310: c1da 883d e9ac 18be 3471 983d 497d 19be
00000320: a279 abbd 3ada 72bd 6cd2 d73c cf7a 273e
00000330: 434a 3ebd 4603 24bc ecc5 b7bd b404 353d
00000340: d46e b43d d38c 20be 6410 20be eaf7 e03d
00000350: 5aa5 33bd 299c c13d a1e7 f43b 7ea2 de3c
00000360: 452c 04be 9172 f9ba 8c03 a6be 7688 83bd
00000370: fe2e 163e bc95 6dbe 5ce3 3abe b6b2 4abb
00000380: 09d5 58be d029 8fbd 60fa 6fba 5225 0ebd
00000390: 855a 393d 7d72 1c3d 26bd cb3b 5aff babd
000003a0: e121 fd3c bedf 5e3c c5c5 c7bd b6a2 983d
000003b0: b5aa ca3d 2d05 9a3d 3d63 e5bc 523b fc3c
000003c0: a18d a83d ceec 003d 5074 243d 7bec 923d
000003d0: dd77 17be 4cb3 06bc a3d7 a93d 9dfc c13e
000003e0: 87dd ad3d 81fe 663d 74cd 133d 9d47 01be
000003f0: 84f8 993d ee63 d33d 8c3b 13be b653 05be

mid_part.6.bias f4 [32]
0.12794435 0.4731272 0.110556 -0.096691966 -0.042291228 0.083648115 0.92578864 0.09047006
0.12607732 0.042763833 0.03938201 -0.15806058 0.24424484 -0.106246606 -0.02962948 0.11923776
0.10988676 0.35830474 0.0891866 0.0735462 -0.04312015 -0.27207908 0.0038165976 -0.26208898
-0.11910703 0.0045674453 0.29521617 0.15211856 0.13234447 -0.13834095 -0.016326599 0.027440047
00000000: d803 033e ba3d f23e 2f6b e23d 7006 c6bd
00000010: 9139 2dbd b44f ab3d 7c00 6d3f 5e48 b93d
00000020: 6a1a 013e 2129 2f3d 084f 213d a2da 21be
00000030: 521b 7a3e d297 d9bd 86b9 f2bc ed32 f43d
00000040: 4f0c e13d b873 b73e 77a7 b63d 649f 963d
00000050: c19e 30bd f34d 8bbe e21f 7a3b 8730 86be
00000060: 63ee f3bd 82aa 953b 9326 973e f8c4 1b3e
00000070: 4f85 073e 40a9 0dbe 5cbf 85bc f3c9 e03c

mid_part.7.weight f4 [32]
0.14097737 0.014168951 0.116512075 0.83975613 0.032093216 0.6827046 0.21247846 -0.082327485
0.018189667 0.96297914 0.40929472 0.094253264 1.1330526 0.9070959 0.16612087 0.8842035
0.9536932 1.7965095 0.8248487 0.9977862 0.34782982 0.89611053 0.17386626 1.0853856
-0.042203832 1.0006415 0.10513713 0.5879253 0.7595715 0.63398075 0.93099594 0.03194348
00000000: 5f5c 103e e324 683c e29d ee3d 42fa 563f
00000010: 2d74 033d bbc5 2e3f f493 593e 509b a8bd
00000020: 7f02 953c cd85 763f 148f d13e db07 c13d
00000030: de07 913f 7037 683f 971b 2a3e 295b 623f
00000040: 3d25 743f 06f4 e53f 4929 533f eb6e 7f3f
00000050: c016 b23e 8067 653f ff09 323e eaed 8a3f
00000060: eddd 2cbd 0515 803f 2352 d73d 4682 163f
00000070: 4773 423f 904c 223f c055 6e3f 2bd7 023d

mid_part.8.weight f4 [32, 32, 3, 3]
-0.2702413 -0.13876215 -0.017050106 0.29661232 0.09693637 -0.18024378 -0.005098937 0.107286766
0.08522099 0.02089732 0.009631592 0.03869916 0.13090473 0.3002822 -0.09184699 -0.0043010903
0.10410204 0.12442889 0.246135 0.10475018 0.042092822 -0.4227014 0.19770339 -0.045079485
-0.22114332 -0.04997724 -0.21589436 -0.066469625 -0.08877177 0.02368978 -0.01943887 0.027499832
0.10936291 -0.18893844 -0.086751044 0.15932155 0.102329135 0.18739662 0.25733724 0.23848191
-0.16245207 0.292087 0.2779389 0.27148584 0.050747786 0.19154014 -0.028918132 -0.009799459
0.02738154 -0.18094021 -0.003191169 0.045155454 0.21615365 0.07524495 -0.13267183 0.07442115
-0.20254076 -0.1287036 0.17940956 -0.1432176 -0.16147476 0.041794192 0.13364463 0.17208749
0.10056122 0.18906698 -0.019266395 0.08878264 -0.08430763 0.16939951 0.4545353 0.1336347
-0.03816398 0.36549404 0.25921658 -0.12323012 0.41029084 0.08562726 0.14077882 -0.022237265
-0.075236686 -0.07827701 0.012150022 0.07197139 0.011811891 -0.075770155 -0.051379077 -0.010934344
-0.12067689 0.11828942 0.1700898 0.21336529 0.10025039 0.18429913 0.29206577 0.25804025
-0.14336525 -0.09292369 0.21140563 -0.0041251103 0.040571354 0.09394093 0.026807401 0.1408573
-0.044943657 -0.20729896 -0.3310376 -0.29611218 -0.17445162 -0.1297626 0.010259763 0.041311342
0.009422067 0.036741346 0.03236584 -0.049321014 -0.006383282 0.085555136 0.06894075 -0.1979464
0.06832468 0.075014055 -0.06729837 0.0030862144 0.02854586 -0.050740294 0.036691356 0.18532653
-0.0056877644 0.3708353 -0.0391634 0.31676015 0.06851715 0.18904525 0.04968292 0.0032876884
0.07265695 0.061470527 -0.020841304 -0.0057417825 -0.06647095 0.06756893 0.07049897 0.15052305
0.04982439 0.01351679 -0.09101431 -0.015384944 -0.024532873 -0.048720725 -0.045789935 -0.037951034
0.035722736 0.12925135 0.19775863 -0.23183997 -0.0070941322 0.10019798 0.044557508 0.13175674
0.120499074 -0.06010886 -0.009290419 -0.010168863 -0.17569786 -0.15537201 -0.13662952 -0.15278284
0.28597736 0.017392099 0.045655005 0.14628054 -0.15179074 -0.027260728 -0.06815735 -0.062245645
-0.19115318 -0.17661847 -0.08418155 -0.12589042 -0.17311662 -0.23291667 -0.11356881 -0.01596288
0.087377116 0.06067285 -0.03452536 -0.013539101 0.15129608 -0.0028018935 0.07538365 -0.07712402
0.040961407 -0.46806717 -0.2648844 -0.011025487 -0.017919034 0.0019308344 -0.18530881 -0.02717713
0.058521032 -0.14017066 -0.28071222 0.0099591855 0.036283515 -0.08521099 0.013186042 0.0803922
0.26742047 0.36156958 0.07244348 -0.10615913 0.10996325 -0.1991968 0.015840638 0.025305841
-0.0765474 0.19225472 0.0927491 -0.10018677 -0.2877819 -0.22516565 -0.067188196 -0.27869424
-0.031701665 -0.17417054 0.072483666 -0.2181337 -0.31601512 -0.15414907 -0.14091638 0.005663939
0.10033993 -0.10035386 0.082219616 -0.08127337 0.09641127 0.11741749 0.14226702 0.32907477
0.058131143 0.05848097 -0.03464399 0.10731417 -0.045533035 0.08011754 0.1682817 0.04640016
0.061941117 -0.13980433 -0.10994119 -0.08698655 0.20228152 0.26732045 -0.123623684 0.009440087
00000000: 115d 8abe aa17 0ebe aaac 8bbc 92dd 973e
00000010: 9386 c63d d391 38be fc14 a7bb 2ab9 db3d
00000020: 5888 ae3d db30 ab3c d3cd 1d3c 0383 1e3d
00000030: e40b 063e 97be 993e 461a bcbd 29f0 8cbb
00000040: 7333 d53d 93d4 fe3d d00a 7c3e 4387 d63d
00000050: 8669 2c3d 516c d8be c272 4a3e 44a5 38bd
00000060: 6573 62be efb4 4cbd 6913 5dbe 3a21 88bd
00000070: f9cd b5bd 1211 c23c 443e 9fbc 5447 e13c
00000080: a9f9 df3d 1479 41be 88aa b1bd 3025 233e
00000090: f091 d13d e6e4 3f3e b5c1 833e 9a34 743e
000000a0: d659 26be 6d8c 953e 024e 8e3e 3100 8b3e
000000b0: e9dc 4f3d 1923 443e b8e5 ecbc e98d 20bc
000000c0: 404f e03c 6448 39be ee22 51bb edf4 383d
000000d0: 6257 5d3e 061a 9a3d 20db 07be 1e6a 983d
000000e0: d866 4fbe e0ca 03be 24b7 373e a2a7 12be
000000f0: a459 25be 6330 2b3d 23da 083e b437 303e
00000100: 0af3 cd3d c69a 413e 8fd4 9dbc acd3 b53d
00000110: 7ba9 acbd 1177 2d3e dab8 e83e 89d7 083e
00000120: d551 1cbd 0922 bb3e 09b8 843e 1360 fcbd
00000130: a411 d23e 585d af3d 5328 103e ed2a b6bc
00000140: b115 9abd b24f a0bd e310 473c bc65 933d
00000150: a986 413c 622d 9bbd de72 52bd f625 33bc
00000160: 7225 f7bd b941 f23d 052c 2e3e 6e7c 5a3e
00000170: 1450 cd3d e9b8 3c3e a589 953e da1d 843e
00000180: 57ce 12be c74e bebd b87a 583e ef2b 87bb
00000190: 262e 263d 1a64 c03d 329b db3c e53c 103e
000001a0: d716 38bd 2e46 54be c37d a9be 049c 97be
000001b0: 72a3 32be 7de0 04be 9118 283c 1536 293d
000001c0: 035f 1a3c 187e 163d 0b92 043d d504 4abd
000001d0: da2a d1bb 8837 af3d cf30 8d3d 76b2 4abe
000001e0: cfed 8b3d f8a0 993d bad3 89bd 1642 4a3b
000001f0: 02d9 e93c 0ed5 4fbd ad49 163d 3dc6 3d3e
00000200: 6d60 babb 20de bd3e cd69 20bd 632e a23e
00000210: b852 8c3d 1495 413e 5180 4b3d 4276 573b
00000220: 2bcd 943d 85c8 7b3d 62bb aabc 9025 bcbb
00000230: ec21 88bd 9461 8a3d c461 903d b722 1a3e
00000240: a914 4c3d 8775 5d3c b665 babd 2211 7cbc
00000250: 2af9 c8bc 628f 47bd 3a8e 3bbd 8b72 1bbd
00000260: 0152 123d 775a 043e 3d81 4a3e 7567 6dbe
00000270: e575 e8bb 9934 cd3d ef81 363d 3deb 063e
00000280: 38c8 f63d b534 76bd d736 18bc 4e9b 26bc
00000290: 24ea 33be d719 1fbe 9ce8 0bbe 1b73 1cbe
000002a0: a06b 923e e079 8e3c be00 3b3d 91ca 153e
000002b0: 086f 1bbe e451 dfbc 1596 8bbd 4af5 7ebd
000002c0: a9bd 43be 79db 34be 6067 acbd 6be9 00be
000002d0: 7c45 31be b581 6ebe c496 e8bd 96c4 82bc
000002e0: c6f2 b23d 1884 783d 776a 0dbd 1bd3 5dbc
000002f0: 5ced 1a3e f99f 37bb be62 9a3d 33f3 9dbd
00000300: 26c7 273d 80a6 efbe ee9e 87be 3fa4 34bc
00000310: f0ca 92bc 0d14 fd3a 98c1 3dbe 93a2 debc
00000320: c0b3 6f3d e688 0fbe 83b9 8fbe da2b 233c
00000330: 069e 143d 1983 aebd 450a 583c aaa4 a43d
00000340: 56eb 883e a61f b93e 3f5d 943d f569 d9bd
00000350: 6a34 e13d 3ffa 4bbe 3ac4 813c 324e cf3c
00000360: e2c4 9cbd 6cde 443e 3df3 bd3d b92e cdbd
00000370: 2658 93be d391 66be f799 89bd 03b1 8ebe
00000380: 9bd9 01bd c359 32be 5172 943d 715e 5fbe
00000390: bccc a1be 41d9 1dbe 624c 10be 9098 b93b
000003a0: 057f cd3d 5386 cdbd c262 a83d a772 a6bd
000003b0: 4673 c53d 9578 f03d 72ae 113e 7d7c a83e
000003c0: ec1a 6e3d be89 6f3d dbe6 0dbd 88c7 db3d
000003d0: d980 3abd aa14 a43d 0a52 2c3e 180e 3e3d
000003e0: f8b5 7d3d de28 0fbe d928 e1bd 0126 b2bd
000003f0: e322 4f3e 3ade 883e 6a2e fdbd 98aa 1a3c
