checkpoint/SRCNN.pth (torch, 965511 bytes, 6 tensors)

conv1.weight f4 [128, 3, 9, 9]
-0.17487176 -0.05510086 -0.0020605647 0.07822531 -0.014025656 -0.05374062 0.18649834 0.19103436
0.06276267 0.23495795 0.22407395 0.088989265 0.13304219 0.053013135 -0.063211516 0.14689052
0.1094401 0.05469793 0.24560663 0.034356665 -0.09572051 0.048958592 0.01724862 -0.25754178
0.009233566 -0.017859697 0.059927296 0.13399546 -0.06456525 -0.2952231 -0.023421908 -0.1486538
-0.27999628 -0.21665102 -0.13628657 0.08897203 0.032541696 -0.2630443 -0.43517148 -0.09529104
-0.1486698 -0.36150074 -0.28427234 -0.12249216 0.13047355 0.055138383 -0.14027701 -0.38906434
-0.015772266 -0.17604461 -0.30470437 -0.2817712 -0.13022839 0.17880823 -0.26958355 -0.1346967
-0.353288 -0.1681753 -0.2870371 -0.40995952 -0.48086393 -0.42193422 -0.5835272 0.18051563
0.23682968 0.013457275 -0.22156295 -0.32996732 -0.3861296 0.31143034 0.07121193 -0.5006586
0.01534582 0.3141523 0.11764198 0.02802048 -0.051682603 -0.12556712 0.04791187 -0.082958505
-0.48319888 -0.18236402 -0.11892993 -0.22023806 0.09523205 0.06611986 0.120574966 0.047386505
-0.0012215578 -0.14091061 0.01565751 0.032408174 -0.046264935 0.19582908 0.101752445 0.085106045
-0.08039857 -0.017347451 -0.087677434 0.043885276 0.04312739 -0.18929993 0.13100918 0.0585946
0.015990293 -0.14880152 -0.038136013 0.016328666 -0.015959932 -0.07546981 -0.30859864 0.09577238
0.022516882 -0.09338421 -0.21651284 -0.017351586 -0.020516591 0.06558516 -0.10966685 -0.27981204
0.13781033 0.09465665 0.013723279 -0.15352347 -0.038925033 0.106619366 0.11045637 0.024380704
-0.21644399 0.22444136 0.24175808 0.14859383 -0.11010795 0.14697734 0.3080255 -0.03932067
0.08277338 -0.20693702 0.2312184 0.13585712 0.19043913 -0.18403639 0.11496263 -0.21321684
-0.042567976 0.06292084 -0.22238357 -0.15575004 -0.3878341 -0.0695702 -0.41980988 -0.06937966
-0.2465279 0.025043737 0.23870958 0.049802024 0.0725079 0.030898547 0.15587947 -0.3275508
0.0724157 0.036585424 -0.29269803 -0.1779997 -0.34363422 0.13922676 0.09671289 0.27972853
-0.18696953 -0.10053665 -0.202363 -0.07108093 -0.06321281 -0.21427624 0.1816299 0.116826735
0.2551944 -0.24509415 -0.075675115 -0.07967653 0.011944272 -0.12655933 -0.23957095 0.14171976
0.012869234 0.2515244 -0.30300692 -0.16506977 0.003676599 0.08490978 -0.10047008 -0.18982282
0.08224968 0.13115223 0.2681145 -0.28887948 -0.08425351 0.13585979 0.118594 0.041321415
-0.164904 0.28810763 0.2262676 0.32629627 -0.08194016 0.11923274 0.32209602 0.44386372
0.28311703 0.1327122 0.53175604 0.47486556 0.62258154 0.05832686 0.3941713 0.6098059
0.16151358 0.18344386 0.057179056 0.25768584 0.26121643 0.69271356 -0.21022226 -0.026387602
-0.169369 -0.34683824 -0.24915417 -0.48526296 -0.35267502 -0.4903221 0.07299755 -0.95382524
-0.9677632 -0.8333186 -0.093984164 -0.04721466 -0.040746883 0.012285018 0.0037286382 0.50104713
-0.6095188 -0.37842187 -0.22460213 -0.32368347 -0.19527613 0.20307809 0.25768748 0.26640147
0.22714253 0.0908382 0.09904895 0.37017575 0.059317116 -0.03278851 0.083182275 0.053858507
00000000: 9511 33be 70b1 61bd 8a0a 07bb 9734 a03d
00000010: ddcb 65bc 201f 5cbd 6cf9 3e3e 839e 433e
00000020: b789 803d d198 703e a473 653e 0140 b63d
00000030: 363c 083e 4d24 593d 0a75 81bd 786a 163e
00000040: 2222 e03d f00a 603d 4e80 7b3e 93b9 0c3d
00000050: 1d09 c4bd ce88 483d fa4c 8d3c 84dc 83be
00000060: 6248 173c 804e 92bc 5376 753d 1b36 093e
00000070: c93a 84bd 7b27 97be 4ddf bfbc b438 18be
00000080: ac5b 8fbe c4d9 5dbe b58e 0bbe f836 b63d
00000090: 714a 053d bead 86be ccce debe f327 c3bd
000000a0: e53c 18be a016 b9be 258c 91be 2bdd fabd
000000b0: dc9a 053e c9d8 613d c7a4 0fbe 7133 c7be
000000c0: d734 81bc 0a45 34be 3602 9cbe 5144 90be
000000d0: 975a 05be 8119 373e db06 8abe efed 09be
000000e0: 2ae2 b4be 2536 2cbe 87f6 92be 37e6 d1be
000000f0: cc33 f6be c307 d8be 0a62 15bf 17d9 383e
00000100: 7b83 723e e77b 5c3c 66e1 62be 7af1 a8be
00000110: c7b2 c5be cc73 9f3e 8fd7 913d 292b 00bf
00000120: 096d 7b3c 92d8 a03e 47ee f03d 358b e53c
00000130: 23b1 53bd ab94 00be 3d3f 443d 26e6 a9bd
00000140: d865 f7be a2bd 3abe 8991 f3bd 1686 61be
00000150: 0509 c33d d969 873d 02f0 f63d 5a18 423d
00000160: ae1c a0ba df4a 10be 2e44 803c 6fbe 043d
00000170: 4d80 3dbd 6b87 483e 9663 d03d 144c ae3d
00000180: 01a8 a4bd 3e1c 8ebc 3a90 b3bd 0cc1 333d
00000190: 59a6 303d d7d7 41be 4527 063e e400 703d
000001a0: 13fe 823c 6d5f 18be 8234 1cbd b2c3 853c
000001b0: 67be 82bc ea8f 9abd a400 9ebe 4f24 c43d
000001c0: 5375 b83c 3840 bfbd 8bb5 5dbe ea24 8ebc
000001d0: 6912 a8bc 8351 863d 0399 e0bd 8643 8fbe
000001e0: 271e 0d3e 59db c13d 9bd7 603c 4235 1dbe
000001f0: db6f 1fbd 415b da3d f336 e23d 0bba c73c
00000200: 7ea3 5dbe f5d3 653e 6e8f 773e fb28 183e
00000210: 4780 e1bd 3a81 163e 85b5 9d3e b60e 21bd
00000220: 1785 a93d 4ce7 53be 84c4 6c3e 211e 0b3e
00000230: 7a02 433e 0974 3cbe 8771 eb3d 8455 5abe
00000240: c25b 2ebd a4dc 803d 85b8 63be f07c 1fbe
00000250: 3192 c6be d27a 8ebd 52f1 d6be ec16 8ebd
00000260: cf71 7cbe 8628 cd3c 4970 743e 35fd 4b3d
00000270: 067f 943d f31e fd3c de9e 1f3e bdb4 a7be
00000280: af4e 943d 99da 153d 84dc 95be 8e45 36be
00000290: d3f0 afbe 7691 0e3e 6811 c63d 9438 8f3e
000002a0: f174 3fbe 29e6 cdbd 3f38 4fbe e192 91bd
000002b0: b875 81bd 3b6b 5bbe 30fd 393e db42 ef3d
000002c0: d7a8 823e f6f9 7abe 8efb 9abd 732d a3bd
000002d0: e8b1 433c c598 01be 1652 75be fc1e 113e
000002e0: 7bd9 523c cec7 803e b923 9bbe 0d08 29be
000002f0: 18f3 703b 2ee5 ad3d 42c3 cdbd ea60 42be
00000300: 8572 a83d c54c 063e 4e46 893e 03e8 93be
00000310: 1b8d acbd d41e 0b3e 69e1 f23d a540 293d
00000320: 98dc 28be d882 933e b2b2 673e 4e10 a73e
00000330: 3ed0 a7bd 4b30 f43d c5e9 a43e 1b42 e33e
00000340: b7f4 903e b5e5 073e 2a21 083f 9421 f33e
00000350: 8161 1f3f 25e8 6e3d d2d0 c93e 3d1c 1c3f
00000360: d163 253e b5d8 3b3e 9634 6a3d 66ef 833e
00000370: 29be 853e ad55 313f 8144 57be d02a d8bc
00000380: 116f 2dbe c894 b1be 4522 7fbe 6374 f8be
00000390: d291 b4be 800b fbbe bd7f 953d e42d 74bf
000003a0: 54bf 77bf 5e54 55bf c57a c0bd 2964 41bd
000003b0: 34e6 26bd 1a47 493c 2b5c 743b a044 003f
000003c0: 6d09 1cbf 83c0 c1be 1afe 65be d7b9 a5be
000003d0: 77f6 47be b4f3 4f3e 9def 833e c665 883e
000003e0: 0d98 683e 6109 ba3d 2dda ca3d ad87 bd3e
000003f0: 81f6 723d 3f4d 06bd 785b aa3d bd9a 5c3d

conv1.bias f4 [128]
-0.005669208 -0.31652495 -0.074338086 -0.4511685 -0.05001902 -0.3902238 -0.060188953 -0.021823304
-0.07404135 -0.022714747 -0.10372224 -0.025921898 -0.06841697 -0.25801113 -0.02042972 -0.09774475
-0.72175676 -0.18382049 -0.047928892 -0.7641381 -0.13731295 -0.07757859 0.2632963 -0.22414364
0.12848853 -0.2913575 0.32951128 -0.072542384 -0.12120318 -0.0685337 -0.14389542 -0.06353751
-0.32666513 -0.023111513 0.031253938 -0.17548838 0.12214692 -0.13016744 0.13770463 -0.22602347
-0.045351617 0.023522323 -0.15727128 0.033801682 -0.48141494 -0.20054248 0.051008582 -0.07399018
-0.14978021 -0.34884924 -0.33308944 -0.105150275 -0.009512441 -0.08601462 -0.107306056 -0.14748617
0.18490934 -0.21716757 -0.14263049 -0.21795504 -0.47745207 -0.050271556 -0.07625315 0.018806726
0.0018578784 0.106940605 -0.051842798 -0.2786883 -0.07240051 -0.047354728 -0.07098869 -0.46478343
-0.06990514 -0.25575113 -0.016252404 0.010863402 -0.4227973 -0.10959386 -0.10707365 -0.13908677
-0.37486824 -0.012218255 -0.061647814 -0.1536981 -0.06873424 -0.24799633 -0.0158778 -0.029099831
-0.012443752 -0.23691007 -0.08934876 -0.15616727 -0.061058823 -0.10768286 -0.09200629 0.17080335
0.05624177 0.0012174386 -0.330263 -0.043154452 -0.0175835 -0.05469813 -0.32647398 -0.95364684
-0.05438149 0.16392739 0.022988034 -0.12109917 -0.3923415 -0.13640805 0.08403043 -0.11387548
0.09137579 -0.16706416 0.14512011 -0.29900286 -0.13331692 -0.20056912 -0.07080448 -0.05082595
-0.0050748214 -1.2326406 -0.0038115724 -0.013285113 -0.06898808 0.08246978 -0.5730036 -0.020003414
00000000: c3c4 b9bb 8f0f a2be 913e 98bd 8fff e6be
00000010: bee0 4cbd 6acb c7be b188 76bd c9c6 b2bc
00000020: fea2 97bd 4714 babc 536c d4bd 295a d4bc
00000030: 321e 8cbd 091a 84be 3a5c a7bc 662e c8bd
00000040: 0dc5 38bf 703b 3cbe 1651 44bd 8e9e 43bf
00000050: c49b 0cbe 86e1 9ebd c6ce 863e e985 65be
00000060: 7f92 033e cf2c 95be b4b5 a83e 1a91 94bd
00000070: 5f39 f8bd 665b 8cbd 5259 13be f41f 82bd
00000080: a740 a7be 5b54 bdbc 2104 003d 3ab3 33be
00000090: 2a28 fa3d 9d4a 05be 7102 0d3e b272 67be
000000a0: 9ec2 39bd e3b1 c03c b90b 21be a273 0a3d
000000b0: 057c f6be 025b 4dbe 60ee 503d 2a88 97bd
000000c0: fc5f 19be 5e9c b2be b38a aabe 0759 d7bd
000000d0: 12da 1bbc 6f28 b0bd 47c3 dbbd 9d06 17be
000000e0: e058 3d3e 2d61 5ebe ba0d 12be 9b2f 5fbe
000000f0: 9974 f4be 8ce9 4dbd 9d2a 9cbd 9010 9a3c
00000100: 0e84 f33a ad03 db3d 1d59 54bd 3cb0 8ebe
00000110: b846 94bd 08f7 41bd 8562 91bd 18f8 edbe
00000120: 6d2a 8fbd d0f1 82be c323 85bc 69fc 313c
00000130: e378 d8be bf72 e0bd 6e49 dbbd c36c 0ebe
00000140: bbee bfbe 132f 48bc 6b82 7cbd 0963 1dbe
00000150: 8ac4 8cbd c0f2 7dbe 2912 82bc c562 eebc
00000160: e1e0 4bbc 8e98 72be 7cfc b6bd 50ea 1fbe
00000170: d118 7abd d588 dcbd cb6d bcbd 13e7 2e3e
00000180: c55d 663d 7692 9f3a 3b18 a9be b9c2 30bd
00000190: 460b 90bc 250b 60bd 9927 a7be 3322 74bf
000001a0: 20bf 5ebd 95dc 273e 6751 bc3c d702 f8bd
000001b0: fce0 c8be 8dae 0bbe 2518 ac3d 8c37 e9bd
000001c0: 3b23 bb3d de12 2bbe 5e9a 143e e716 99be
000001d0: 3b84 08be fe61 4dbe f001 91bd df2e 50bd
000001e0: b04a a6bb 2bc7 9dbf 93cb 79bb cda9 59bc
000001f0: 9f49 8dbd ebe5 a83d 5db0 12bf 33de a3bc

conv2.weight f4 [64, 128, 5, 5]
0.2799447 0.48626807 0.20831358 0.10182183 0.07012641 0.2112655 0.1770377 0.25222152
0.049821325 0.29953536 0.12712498 0.05338288 0.34115803 0.05108869 0.10180008 -0.15946345
-0.20526223 0.24729857 0.054048985 -0.22679496 -0.01051311 -0.081959985 0.19919851 -0.13622136
-0.54666054 0.3709229 0.046833634 0.21131244 0.11173905 -0.34526923 0.2620182 -0.37827763
0.06636691 0.121128224 0.027319467 -0.1357356 -0.38251063 -0.36457452 -0.10941214 -0.24457735
-0.18039548 0.017855085 0.038421303 0.47232586 0.16719714 -0.046641562 0.04702052 0.16081545
-0.12144429 0.020865763 0.082241766 0.14192757 0.042389516 -0.024473963 0.23370114 -0.20684345
-0.0030398115 0.008487003 -0.18467699 -0.38009664 -0.17089671 0.18089932 -0.045623995 -0.3481876
0.08003553 -0.04666816 0.39834982 0.2526701 -0.3524602 -0.014479146 -0.3222954 0.013554753
-0.10142532 -0.011247396 0.166625 0.3808027 -0.06983693 0.058505513 -0.2649628 0.24666908
-0.000105979845 -0.27700153 -0.06402188 -0.46611783 -0.1406426 -0.014936475 -0.06721476 0.38978243
0.13370979 -0.023508193 0.0016613799 -0.2035421 -0.21840645 0.09143242 0.19919056 -0.04102372
-0.03815271 -0.37630928 -0.068808295 -0.113811605 -0.18099704 -0.13896263 -0.15081339 0.0864725
-0.00015398793 -0.10102942 0.040244617 -0.10030818 0.022527555 -0.10786865 -0.027453644 0.2350901
0.08879691 0.08133978 -0.117411196 -0.007237113 0.26595545 0.108750835 0.13749145 -0.092506774
-0.039658092 -0.028166603 -0.29094267 -0.05282981 -0.081803896 0.05729004 0.079304956 0.18809317
-0.23245183 -0.12063461 0.08705082 0.09910976 0.34018198 0.051101457 0.27341285 0.011972143
-0.09140189 0.27691758 -0.1888707 0.060322654 -0.10533149 -0.40134984 -0.117911324 -0.03982222
-0.09268506 0.06388712 -0.19328128 -0.23169944 -0.18755521 0.046120685 -0.02098669 0.16329032
0.01163146 -0.21266966 0.3528389 -0.3747082 0.06863088 -0.084149316 -0.14954023 -0.15610248
-0.022375748 0.18945552 0.10046753 0.22827114 0.13001943 -0.0663176 0.09172576 0.025018184
0.10230615 0.011402985 -0.010358322 -0.119229 -0.10921653 -0.066607505 0.005021753 0.15073587
-0.11872196 -0.2357713 -1.4505534 -0.5050893 0.12922262 0.03145969 0.05409265 -0.13543859
0.08944113 0.080339625 0.051932726 0.034708593 -0.11593981 0.03227659 -0.16151692 0.08425218
0.12725577 0.065373085 0.547224 -0.19018367 0.09179965 0.15110464 0.06854971 0.21745946
-0.15522546 -0.12379308 -0.23043156 -0.19953401 0.35477322 0.20388822 0.1878757 0.0069949906
-0.0829119 0.1290821 0.028485857 0.018352127 0.03123648 -0.12630898 -0.015180187 -0.24783601
-0.1909779 -0.023178719 -0.09836454 -0.008049797 -0.12130769 0.24305397 0.47137034 -0.04175696
-0.04878732 0.0250419 -0.025992522 0.09775686 0.11762599 0.24701132 -0.07783725 -0.30510944
0.0072816596 -0.076899216 -0.008338691 -0.022045076 -0.12303615 0.015527404 0.12893285 0.0007744321
0.0890507 -0.19608252 -0.034365524 -0.05440018 -0.18525243 -0.13986336 0.33329627 0.33042467
0.2627509 0.05127381 0.2627563 -0.018626075 -0.10331491 -0.22972208 -0.14475946 0.30592805
00000000: e954 8f3e 21f8 f83e 2850 553e f787 d03d
00000010: 6f9e 8f3d fc55 583e 5f49 353e 2e23 813e
00000020: 7211 4c3d b35c 993e 0d2d 023e 02a8 5a3d
00000030: 44ac ae3e 6042 513d 8f7c d03d 634a 23be
00000040: 4330 52be d63b 7d3e 7862 5d3d f03c 68be
00000050: 2e3f 2cbc a3da a7bd b2fa 4b3e 9d7d 0bbe
00000060: f2f1 0bbf 9be9 bd3e a0d4 3f3d 4a62 583e
00000070: 71d7 e43d 21c7 b0be 4027 863e 9bad c1be
00000080: 60eb 873d 1312 f83d 13cd df3c 46fe 0abe
00000090: 6fd8 c3be 83a9 babe 7913 e0bd 7c72 7abe
000000a0: 98b9 38be d444 923c a85f 1d3d b2d4 f13e
000000b0: ba35 2b3e 390b 3fbd 9798 403d ceac 243e
000000c0: c9b7 f8bd adee aa3c 5f6e a83d 7655 113e
000000d0: a1a0 2d3d 9f7d c8bc 5a4f 6f3e c5ce 53be
000000e0: 9337 47bb 120d 0b3c f71b 3dbe 079c c2be
000000f0: 8cff 2ebe ac3d 393e 3ae0 3abd a545 b2be
00000100: abe9 a33d 1d27 3fbd 82f4 cb3e fa5d 813e
00000110: aa75 b4be f139 6dbc e703 a5be c114 5e3c
00000120: 14b8 cfbd ff46 38bc be9f 2a3e 92f8 c23e
00000130: aa06 8fbd 7aa3 6f3d 34a9 87be d296 7c3e
00000140: 7f41 deb8 25d3 8dbe e71d 83bd ffa6 eebe
00000150: 9d04 10be 1eb8 74bc e4a7 89bd 9091 c73e
00000160: 38eb 083e 4194 c0bc a9c2 d93a 576d 50be
00000170: f1a5 5fbe ec40 bb3d 9cf8 4b3e 7d08 28bd
00000180: 0446 1cbd 9cab c0be 5deb 8cbd 0f16 e9bd
00000190: 4a57 39be 384c 0ebe d36e 1abe 7e18 b13d
000001a0: d277 21b9 83e8 cebd 8ad7 243d 606e cdbd
000001b0: b58b b83c 3dea dcbd 77e6 e0bc 76bb 703e
000001c0: 28db b53d 7895 a63d 4875 f0bd 4e25 edbb
000001d0: 502b 883e c2b8 de3d 8fca 0c3e 3174 bdbd
000001e0: 8670 22bd a6bd e6bc 70f6 94be 1264 58bd
000001f0: cd88 a7bd f6a8 6a3d a36a a23d 7f9b 403e
00000200: da07 6ebe 470f f7bd b347 b23d 0ffa ca3d
00000210: 552c ae3e c34f 513d c5fc 8b3e cf26 443c
00000220: ea30 bbbd 24c8 8d3e 5267 41be e314 773d
00000230: 09b8 d7bd ba7d cdbe 7e7b f1bd a01c 23bd
00000240: aad1 bdbd 40d7 823d 87eb 45be 9e42 6dbe
00000250: 790e 40be 0be9 3c3d 47ec abbc 9435 273e
00000260: e191 3e3c 13c6 59be 4da7 b43e c1d9 bfbe
00000270: 598e 8c3d 7a56 acbd 1321 19be 54d9 1fbe
00000280: 584d b7bc a100 423e ecc1 cd3d e9bf 693e
00000290: d023 053e 86d1 87bd b7da bb3d eff2 cc3c
000002a0: e385 d13d 96d3 3a3c f4b5 29bc 552e f4bd
000002b0: ebac dfbd 8469 88bd 848d a43b 815a 1a3e
000002c0: 8024 f3bd 086e 71be bcab b9bf 884d 01bf
000002d0: ef52 043e e0db 003d 4190 5d3d 6ab0 0abe
000002e0: e92c b73d 1a89 a43d 69b7 543d 992a 0e3d
000002f0: da71 edbd 7534 043d b164 25be 688c ac3d
00000300: 564f 023e 53e2 853d df16 0c3f 82bf 42be
00000310: 7401 bc3d 2dbb 1a3e ca63 8c3d b1ad 5e3e
00000320: 6cf3 1ebe 3a87 fdbd 40f6 6bbe a552 4cbe
00000330: d6a4 b53e 13c8 503e 7d62 403e 3c36 e53b
00000340: b7cd a9bd 192e 043e 2c5b e93c 3357 963c
00000350: a6e3 ff3c 2457 01be 52b6 78bc b9c8 7dbe
00000360: b68f 43be 4ce1 bdbc 5973 c9bd 4ce3 03bc
00000370: 2b70 f8bd 24e3 783e 7457 f13e 5909 2bbd
00000380: 36d5 47bd ac24 cd3c 45ee d4bc c034 c83d
00000390: e5e5 f03d 89f0 7c3e 2369 9fbd 4e37 9cbe
000003a0: fd9a ee3b 567d 9dbd 019f 08bc e097 b4bc
000003b0: 61fa fbbd a766 7e3c f906 043e 4203 4b3a
000003c0: 3760 b63d dbc9 48be ddc2 0cbd b9d2 5ebd
000003d0: d0b2 3dbe 5738 0fbe cfa5 aa3e 6c2d a93e
000003e0: 4987 863e 7d04 523d fe87 863e b695 98bc
000003f0: c496 d3bd 443c 6bbe d33b 14be 9aa2 9c3e

conv2.bias f4 [64]
-0.05398307 -0.006479209 0.1317864 0.0060986415 -0.015471454 -0.007866799 -0.001362783 -0.010993661
-0.018391557 -0.07406927 -0.007836808 -0.014394042 0.0019904538 0.008738686 -0.028822776 -0.3036836
0.0065567596 0.120333925 0.069304764 0.095767535 0.1844121 0.0011181881 0.24121928 -0.028843144
-0.017850678 -0.004413035 0.23806094 -0.0050760116 -0.0130042555 -0.020906463 -0.01808776 -0.016111292
-0.027802782 -0.021450965 -0.008700986 -0.045353055 -0.005991435 0.008222073 -0.006077013 -0.0186879
-0.029443398 -0.014185209 0.07928785 0.0072070267 0.14156844 -0.017853474 -0.008248862 -0.011873945
0.011079357 -0.038151737 -0.007842016 -0.004544773 -0.005178794 0.1569726 -0.073975846 0.029858848
-0.056093857 0.005064935 -0.104757205 0.003463785 -0.015687088 0.0027482847 0.010545884 -0.12496677
00000000: 5a1d 5dbd 8b4f d4bb 04f3 063e 1dd7 c73b
00000010: fb7b 7dbc bfe3 00bc 699f b2ba c21e 34bc
00000020: e4a9 96bc a1b1 97bd f565 00bc fdd4 6bbc
00000030: 4672 023b b52c 0f3c be1d ecbc 6b7c 9bbe
00000040: 16da d63b a271 f63d a8ef 8d3d c521 c43d
00000050: 87d6 3c3e 2b90 923a 3002 773e 7548 ecbc
00000060: 963b 92bc 399b 90bb 3fc6 733e ac54 a6bb
00000070: cd0f 55bc 0844 abbc c82c 94bc d4fb 83bc
00000080: a9c2 e3bc efb9 afbc 958e 0ebc 20c4 39bd
00000090: cd53 c4bb e0b5 063c ae21 c7bb 5e17 99bc
000000a0: 4833 f1bc 1469 68bc ab61 a23d ec28 ec3b
000000b0: 51f7 103e 7341 92bc 3c26 07bc ef8a 42bc
000000c0: 3186 353c ff44 1cbd cd7b 00bc 52ec 94bb
000000d0: dfb2 a9bb 6dbd 203e a680 97bd 8b9a f43c
000000e0: acc2 65bd c1f7 a53b f28a d6bd ab00 633b
000000f0: 3582 80bc 911c 343b a5c8 2c3c 94ee ffbd

conv3.weight f4 [3, 64, 5, 5]
-0.0017091763 -0.003008873 0.0011210424 -0.002620826 -0.0026124858 -0.0001103138 0.0017596845 -0.0034242752
0.0007834684 -0.0021258323 -0.00059403805 0.0013751726 -0.0006648568 -0.000923212 0.00025107144 -0.0013828543
-0.00014220034 0.00265702 -0.0013813615 -0.0014495963 -0.0021199028 -0.00074621395 -0.0020027517 -0.00253694
-0.00018233468 0.012679434 -0.022942876 -0.019481262 -0.015385962 0.024732804 -0.023858398 0.013759128
0.024888175 0.019194257 0.00012048242 0.0086937845 0.02465025 0.018813817 0.017144144 -0.012272204
-0.00047453257 0.016908301 -0.0011841864 -0.006694412 0.008154792 -0.0149585465 -0.009249895 0.001520752
0.00065415417 -0.01966576 -0.0017992011 -0.0013116089 0.0014735523 0.0017897212 0.0019191981 -0.0023297258
-0.00046748106 0.0003658503 0.0018498275 0.0022512032 -0.0033652158 -0.0011210513 -2.6488353e-06 0.0011129116
0.003417239 -0.0022949926 -0.0014588399 -9.711265e-05 0.00062936096 0.0038632595 -0.004920854 -0.0019425917
-0.0018602101 0.0005801384 0.0041241846 -0.015029293 -0.019773958 0.018644521 -0.012870075 0.0033764981
-0.0057687596 0.010760739 0.0073995437 0.01926267 0.0074391994 0.019518623 -0.0137133915 -0.010384087
0.00448079 -0.010695179 0.02431546 0.023535999 0.014203064 0.009037778 -0.0058407583 -0.014191969
-0.0145974625 -0.018416822 -0.011339047 -0.00822789 0.005555472 0.012625567 -0.014676216 0.017145222
-0.0072831614 0.00066843384 -0.000751638 0.010960934 0.0076500336 0.008309863 -0.0030534088 -0.003762294
-0.021794388 0.0059233517 -0.012066443 -0.016727993 0.013647604 -0.014099592 0.008420871 -0.018689945
0.020955527 0.0106786145 -0.013049103 0.007060815 0.0038283446 0.023342336 -0.022368448 0.008316704
0.0010138139 -0.01164405 0.008076009 -0.004905542 0.02296201 -0.014537542 -0.02303456 -0.0029521903
0.004298285 0.010618628 -0.015605624 -0.0022038503 -0.004231218 -0.0049903537 0.018136306 -0.021823855
-0.00031504958 -0.015337602 -0.009403087 0.021620588 0.0011496454 -0.0014680936 0.013699815 -0.021877773
-0.02384204 -0.00781448 0.022886535 -0.015250167 0.017474419 -0.020367378 -0.008067992 0.0065505253
0.00029503665 -0.016540319 -0.0012377359 -0.0082393065 -0.023350291 0.0031198552 0.00036587485 0.008254528
-0.0045958543 -0.0024635708 -0.023163395 0.011819266 -0.014715527 -0.02282183 -0.017220661 -0.018496374
-0.0016808235 -0.016377456 -0.006426029 0.022417365 0.02378691 -0.0036144403 -0.009504284 0.003450351
0.008894985 -0.011928016 0.014433368 -0.01540354 -0.016703337 0.019203324 -0.005790415 -0.013333029
-0.014020127 0.007064134 0.01792718 -0.00669093 0.016803542 -0.0077261436 -0.0094511 -0.00095162954
0.0105679035 0.0052439882 0.011132285 0.0090459995 -0.0015682335 -0.007856317 0.0008959903 -0.00079913955
0.0072730626 0.023417348 0.012438711 -0.0036618675 0.007543638 0.0061619948 -0.021432165 0.0015659764
-0.005105032 -0.003999625 0.020453965 0.022452706 -0.010238292 0.02190687 -0.0071939123 -0.0062971194
-0.0138660865 0.00043206287 0.0014922423 -0.0012087909 -0.00337859 -0.007855452 -0.00016290238 0.00096591254
-0.0017421672 -0.0058580316 -0.00342854 0.0003949236 0.0007384333 -0.0042884103 -0.008020664 -0.0021172063
0.00028900645 0.00016073954 -0.0070123747 -0.005534749 0.00086541084 0.002313443 -0.0047503486 -0.008093734
-0.0035164813 0.0008375361 -0.018960211 0.0067123985 0.014429976 0.009776709 0.016349543 0.019651236
00000000: 7106 e0ba 8330 45bb f1ef 923a 2ac2 2bbb
00000010: 3d36 2bbb 4558 e7b8 37a5 e63a ce69 60bb
00000020: ad61 4d3a 8c51 0bbb 38b9 1bba 233f b43a
00000030: c949 2eba b503 72ba 3da2 8339 e440 b5ba
00000040: 9d1b 15b9 6621 2e3b cd0e b5ba 6100 beba
00000050: 11ee 0abb 929d 43ba 9940 03bb ca42 26bb
00000060: 1831 3fb9 67bd 4f3c b3f2 bbbc 2b97 9fbc
00000070: 6715 7cbc 739c ca3c b072 c3bc f76d 613c
00000080: 49e2 cb3c 463d 9d3c 82ab fc38 6070 0e3c
00000090: 52ef c93c 6f1f 9a3c e071 8c3c 5b11 49bc
000000a0: afca f8b9 4783 8a3c b436 9bba cc5c dbbb
000000b0: ad9b 053c b114 75bc df8c 17bc f853 c73a
000000c0: 8b7b 2b3a 171a a1bc 2cd3 ebba 4bea abba
000000d0: 3624 c13a 1495 ea3a 9a8d fb3a 50ae 18bb
000000e0: 3f18 f5b9 99cf bf39 e975 f23a ec88 133b
000000f0: f48a 5cbb 3df0 92ba a5c2 31b6 1edf 913a
00000100: c2f3 5f3b 9667 16bb 8b36 bfba f5a8 cbb8
00000110: b3fb 243a bd2e 7d3b 1d3f a1bb 909e feba
00000120: 4bd2 f3ba 6e14 183a 2b24 873b 6c3d 76bc
00000130: fffc a1bc 65bc 983c 02dd 52bc 3d48 5d3b
00000140: dd07 bdbb d04d 303c df77 f23b bfcc 9d3c
00000150: 87c4 f33b 85e5 9f3c 22ae 60bc 0522 2abc
00000160: 97d3 923b d53a 2fbc 3731 c73c 91ce c03c
00000170: f8b3 683c 3013 143c d563 bfbb 6f85 68bc
00000180: 322a 6fbc e0de 96bc 69c7 39bc 46ce 06bc
00000190: ad0a b63b 77db 4e3c 8374 70bc 2374 8c3c
000001a0: 96a7 eebb d639 2f3a 9309 45ba 7d95 333c
000001b0: 22ad fa3b 1726 083c b31b 48bb d290 76bb
000001c0: 258a b2bc ad18 c23b 55b2 45bc 2509 89bc
000001d0: 339a 5f3c fa01 67bc b1f7 093c a81b 99bc
000001e0: edaa ab3c 5bf5 2e3c e8cb 55bc 695e e73b
000001f0: f7e4 7a3b 6d38 bf3c 093e b7bc c942 083c
00000200: f3e1 843a afc6 3ebc 3d51 043c abbe a0bb
00000210: d31a bc3c df2e 6ebc f9b2 bcbc 8979 41bb
00000220: a1d8 8c3b c1f9 2d3c bbae 7fbc 796e 10bb
00000230: 07a6 8abb 1f86 a3bb 9792 943c f1c7 b2bc
00000240: 3d2d a5b9 914a 7bbc 680f 1abc a91d b13c
00000250: b3af 963a 0c6d c0ba 3075 603c 0439 b3bc
00000260: 6250 c3bc 4e08 00bc 8b7c bb3c d6db 79bc
00000270: 8326 8f3c 7dd9 a6bc 9c2f 04bc caa5 d63b
00000280: 26af 9a39 907f 87bc 863b a2ba 28fe 06bc
00000290: 1c49 bfbc 7c76 4c3b e4d2 bf39 003e 073c
000002a0: d298 96bb dc73 21bb 29c1 bdbc 98a5 413c
000002b0: 6519 71bc d9f4 babc 5812 8dbc b585 97bc
000002c0: 144f dcba 042a 86bc 7091 d2bb 9fa4 b73c
000002d0: c4dc c23c 3fe0 6cbb dbb7 1bbc 491f 623b
000002e0: 45bc 113c ba6d 43bc ef79 6c3c 215f 7cbc
000002f0: 70d5 88bc 4a50 9d3c 86bd bdbb c772 5abc
00000300: adb4 65bc 407a e73b 05dc 923c 973f dbbb
00000310: 95a7 893c 972b fdbb c9d8 1abc c776 79ba
00000320: 0025 2d3c c3d5 ab3b 3064 363c ac35 143c
00000330: 2f8d cdba c8b7 00bc e4e0 6a3a 597d 51ba
00000340: df52 ee3b bdd5 bf3c bccb 4b3c f1fb 6fbb
00000350: 9f30 f73b 8fea c93b 8292 afbc 7341 cd3a
00000360: 1d48 a7bb 490f 83bb 138f a73c bdee b73c
00000370: 82be 27bc 0976 b33c e9ba ebbb 1158 cebb
00000380: 952e 63bc 7f86 e239 5897 c33a 4b70 9eba
00000390: 566b 5dbb 27b4 00bc c6d0 2ab9 4b35 7d3a
000003a0: 6e59 e4ba bbf4 bfbb 5bb1 60bb c00d cf39
000003b0: 6b93 413a cb85 8cbb 1a69 03bc d4c0 0abb
000003c0: ca85 9739 318c 2839 10c8 e5bb d75c b5bb
000003d0: bddc 623a 229d 173b d0a8 9bbb 959b 04bc
000003e0: c474 66bb 198e 5b3a 7252 9bbc aef3 db3b
000003f0: b56b 6c3c 7d2e 203c 7aef 853c a1fb a03c

conv3.bias f4 [3]
0.0018296824 0.0030083996 0.0036317627
00000000: f4d1 ef3a 9228 453b de02 6e3b
